
.. DO NOT EDIT.
.. THIS FILE WAS AUTOMATICALLY GENERATED BY SPHINX-GALLERY.
.. TO MAKE CHANGES, EDIT THE SOURCE PYTHON FILE:
.. "auto_tutorial\plot_cbegin_opset.py"
.. LINE NUMBERS ARE GIVEN BELOW.

.. only:: html

    .. note::
        :class: sphx-glr-download-link-note

        Click :ref:`here <sphx_glr_download_auto_tutorial_plot_cbegin_opset.py>`
        to download the full example code or to run this example in your browser via Binder

.. rst-class:: sphx-glr-example-title

.. _sphx_glr_auto_tutorial_plot_cbegin_opset.py:


What is the opset number?
=========================

.. index:: opset, target opset, version

Every library is versioned. :epkg:`scikit-learn` may change
the implementation of a specific model. That happens
for example with the `SVC <https://scikit-learn.org/stable/
modules/generated/sklearn.svm.SVC.html>`_ model where
the parameter *break_ties* was added in 0.22. :epkg:`ONNX`
does also have a version called *opset number*.
Operator *ArgMin* was added in opset 1 and changed in opset
11, 12, 13. Sometimes, it is updated to extend the list
of types it supports, sometimes, it moves a parameter
into the input list. The runtime used to deploy the model
does not implement a new version, in that case, a model
must be converted by usually using the most recent opset
supported by the runtime, we call that opset the
*targeted opset*. An ONNX graph only contains
one unique opset, every node must be described following
the specifications defined by the latest opset below the
targeted opset.

This example considers an `IsolationForest
<https://scikit-learn.org/stable/modules/generated/
sklearn.ensemble.IsolationForest.html>`_ and digs into opsets.

.. contents::
    :local:

Data
++++

A simple example.

.. GENERATED FROM PYTHON SOURCE LINES 39-57

.. code-block:: default

    from onnx.defs import onnx_opset_version
    from skl2onnx import to_onnx
    import numpy
    import matplotlib.pyplot as plt
    from sklearn.ensemble import IsolationForest
    from sklearn.datasets import make_blobs

    X, y = make_blobs(n_samples=100, n_features=2)

    model = IsolationForest(n_estimators=3)
    model.fit(X)
    labels = model.predict(X)

    fig, ax = plt.subplots(1, 1)
    for k in (0, 1):
        ax.plot(X[labels == k, 0], X[labels == k, 1], 'o', label="cl%d" % k)
    ax.set_title("Sample")




.. image:: /auto_tutorial/images/sphx_glr_plot_cbegin_opset_001.png
    :alt: Sample
    :class: sphx-glr-single-img





.. GENERATED FROM PYTHON SOURCE LINES 58-60

ONNX
++++

.. GENERATED FROM PYTHON SOURCE LINES 60-65

.. code-block:: default



    onx = to_onnx(model, X[:1].astype(numpy.float32))
    print(onx)





.. rst-class:: sphx-glr-script-out

 Out:

 .. code-block:: none

    ir_version: 7
    producer_name: "skl2onnx"
    producer_version: "1.9.1.dev"
    domain: "ai.onnx"
    model_version: 0
    doc_string: ""
    graph {
      node {
        input: "X"
        input: "node_sample0_Gathercst"
        output: "node_sample0_output0"
        name: "node_sample0_Gather"
        op_type: "Gather"
        attribute {
          name: "axis"
          i: 1
          type: INT
        }
        domain: ""
      }
      node {
        input: "X"
        input: "node_sample0_Gathercst"
        output: "node_sample1_output0"
        name: "node_sample1_Gather"
        op_type: "Gather"
        attribute {
          name: "axis"
          i: 1
          type: INT
        }
        domain: ""
      }
      node {
        input: "node_sample0_output0"
        output: "node_sample0_Y0"
        name: "node_sample0_TreeEnsembleRegressor"
        op_type: "TreeEnsembleRegressor"
        attribute {
          name: "n_targets"
          i: 1
          type: INT
        }
        attribute {
          name: "nodes_falsenodeids"
          ints: 42
          ints: 21
          ints: 4
          ints: 0
          ints: 20
          ints: 13
          ints: 10
          ints: 9
          ints: 0
          ints: 0
          ints: 12
          ints: 0
          ints: 0
          ints: 17
          ints: 16
          ints: 0
          ints: 0
          ints: 19
          ints: 0
          ints: 0
          ints: 0
          ints: 35
          ints: 26
          ints: 25
          ints: 0
          ints: 0
          ints: 30
          ints: 29
          ints: 0
          ints: 0
          ints: 32
          ints: 0
          ints: 34
          ints: 0
          ints: 0
          ints: 39
          ints: 38
          ints: 0
          ints: 0
          ints: 41
          ints: 0
          ints: 0
          ints: 48
          ints: 45
          ints: 0
          ints: 47
          ints: 0
          ints: 0
          ints: 76
          ints: 63
          ints: 58
          ints: 55
          ints: 54
          ints: 0
          ints: 0
          ints: 57
          ints: 0
          ints: 0
          ints: 60
          ints: 0
          ints: 62
          ints: 0
          ints: 0
          ints: 71
          ints: 68
          ints: 67
          ints: 0
          ints: 0
          ints: 70
          ints: 0
          ints: 0
          ints: 75
          ints: 74
          ints: 0
          ints: 0
          ints: 0
          ints: 92
          ints: 85
          ints: 82
          ints: 81
          ints: 0
          ints: 0
          ints: 84
          ints: 0
          ints: 0
          ints: 89
          ints: 88
          ints: 0
          ints: 0
          ints: 91
          ints: 0
          ints: 0
          ints: 98
          ints: 95
          ints: 0
          ints: 97
          ints: 0
          ints: 0
          ints: 0
          type: INTS
        }
        attribute {
          name: "nodes_featureids"
          ints: 1
          ints: 1
          ints: 1
          ints: 0
          ints: 0
          ints: 1
          ints: 1
          ints: 1
          ints: 0
          ints: 0
          ints: 0
          ints: 0
          ints: 0
          ints: 1
          ints: 1
          ints: 0
          ints: 0
          ints: 1
          ints: 0
          ints: 0
          ints: 0
          ints: 1
          ints: 0
          ints: 1
          ints: 0
          ints: 0
          ints: 0
          ints: 0
          ints: 0
          ints: 0
          ints: 1
          ints: 0
          ints: 0
          ints: 0
          ints: 0
          ints: 1
          ints: 1
          ints: 0
          ints: 0
          ints: 1
          ints: 0
          ints: 0
          ints: 0
          ints: 1
          ints: 0
          ints: 1
          ints: 0
          ints: 0
          ints: 1
          ints: 0
          ints: 1
          ints: 0
          ints: 1
          ints: 0
          ints: 0
          ints: 0
          ints: 0
          ints: 0
          ints: 1
          ints: 0
          ints: 0
          ints: 0
          ints: 0
          ints: 1
          ints: 1
          ints: 1
          ints: 0
          ints: 0
          ints: 0
          ints: 0
          ints: 0
          ints: 1
          ints: 0
          ints: 0
          ints: 0
          ints: 0
          ints: 0
          ints: 0
          ints: 0
          ints: 1
          ints: 0
          ints: 0
          ints: 1
          ints: 0
          ints: 0
          ints: 0
          ints: 0
          ints: 0
          ints: 0
          ints: 0
          ints: 0
          ints: 0
          ints: 1
          ints: 0
          ints: 0
          ints: 1
          ints: 0
          ints: 0
          ints: 0
          type: INTS
        }
        attribute {
          name: "nodes_hitrates"
          floats: 1.0
          floats: 1.0
          floats: 1.0
          floats: 1.0
          floats: 1.0
          floats: 1.0
          floats: 1.0
          floats: 1.0
          floats: 1.0
          floats: 1.0
          floats: 1.0
          floats: 1.0
          floats: 1.0
          floats: 1.0
          floats: 1.0
          floats: 1.0
          floats: 1.0
          floats: 1.0
          floats: 1.0
          floats: 1.0
          floats: 1.0
          floats: 1.0
          floats: 1.0
          floats: 1.0
          floats: 1.0
          floats: 1.0
          floats: 1.0
          floats: 1.0
          floats: 1.0
          floats: 1.0
          floats: 1.0
          floats: 1.0
          floats: 1.0
          floats: 1.0
          floats: 1.0
          floats: 1.0
          floats: 1.0
          floats: 1.0
          floats: 1.0
          floats: 1.0
          floats: 1.0
          floats: 1.0
          floats: 1.0
          floats: 1.0
          floats: 1.0
          floats: 1.0
          floats: 1.0
          floats: 1.0
          floats: 1.0
          floats: 1.0
          floats: 1.0
          floats: 1.0
          floats: 1.0
          floats: 1.0
          floats: 1.0
          floats: 1.0
          floats: 1.0
          floats: 1.0
          floats: 1.0
          floats: 1.0
          floats: 1.0
          floats: 1.0
          floats: 1.0
          floats: 1.0
          floats: 1.0
          floats: 1.0
          floats: 1.0
          floats: 1.0
          floats: 1.0
          floats: 1.0
          floats: 1.0
          floats: 1.0
          floats: 1.0
          floats: 1.0
          floats: 1.0
          floats: 1.0
          floats: 1.0
          floats: 1.0
          floats: 1.0
          floats: 1.0
          floats: 1.0
          floats: 1.0
          floats: 1.0
          floats: 1.0
          floats: 1.0
          floats: 1.0
          floats: 1.0
          floats: 1.0
          floats: 1.0
          floats: 1.0
          floats: 1.0
          floats: 1.0
          floats: 1.0
          floats: 1.0
          floats: 1.0
          floats: 1.0
          floats: 1.0
          floats: 1.0
          floats: 1.0
          type: FLOATS
        }
        attribute {
          name: "nodes_missing_value_tracks_true"
          ints: 0
          ints: 0
          ints: 0
          ints: 0
          ints: 0
          ints: 0
          ints: 0
          ints: 0
          ints: 0
          ints: 0
          ints: 0
          ints: 0
          ints: 0
          ints: 0
          ints: 0
          ints: 0
          ints: 0
          ints: 0
          ints: 0
          ints: 0
          ints: 0
          ints: 0
          ints: 0
          ints: 0
          ints: 0
          ints: 0
          ints: 0
          ints: 0
          ints: 0
          ints: 0
          ints: 0
          ints: 0
          ints: 0
          ints: 0
          ints: 0
          ints: 0
          ints: 0
          ints: 0
          ints: 0
          ints: 0
          ints: 0
          ints: 0
          ints: 0
          ints: 0
          ints: 0
          ints: 0
          ints: 0
          ints: 0
          ints: 0
          ints: 0
          ints: 0
          ints: 0
          ints: 0
          ints: 0
          ints: 0
          ints: 0
          ints: 0
          ints: 0
          ints: 0
          ints: 0
          ints: 0
          ints: 0
          ints: 0
          ints: 0
          ints: 0
          ints: 0
          ints: 0
          ints: 0
          ints: 0
          ints: 0
          ints: 0
          ints: 0
          ints: 0
          ints: 0
          ints: 0
          ints: 0
          ints: 0
          ints: 0
          ints: 0
          ints: 0
          ints: 0
          ints: 0
          ints: 0
          ints: 0
          ints: 0
          ints: 0
          ints: 0
          ints: 0
          ints: 0
          ints: 0
          ints: 0
          ints: 0
          ints: 0
          ints: 0
          ints: 0
          ints: 0
          ints: 0
          ints: 0
          ints: 0
          type: INTS
        }
        attribute {
          name: "nodes_modes"
          strings: "BRANCH_LEQ"
          strings: "BRANCH_LEQ"
          strings: "BRANCH_LEQ"
          strings: "LEAF"
          strings: "BRANCH_LEQ"
          strings: "BRANCH_LEQ"
          strings: "BRANCH_LEQ"
          strings: "BRANCH_LEQ"
          strings: "LEAF"
          strings: "LEAF"
          strings: "BRANCH_LEQ"
          strings: "LEAF"
          strings: "LEAF"
          strings: "BRANCH_LEQ"
          strings: "BRANCH_LEQ"
          strings: "LEAF"
          strings: "LEAF"
          strings: "BRANCH_LEQ"
          strings: "LEAF"
          strings: "LEAF"
          strings: "LEAF"
          strings: "BRANCH_LEQ"
          strings: "BRANCH_LEQ"
          strings: "BRANCH_LEQ"
          strings: "LEAF"
          strings: "LEAF"
          strings: "BRANCH_LEQ"
          strings: "BRANCH_LEQ"
          strings: "LEAF"
          strings: "LEAF"
          strings: "BRANCH_LEQ"
          strings: "LEAF"
          strings: "BRANCH_LEQ"
          strings: "LEAF"
          strings: "LEAF"
          strings: "BRANCH_LEQ"
          strings: "BRANCH_LEQ"
          strings: "LEAF"
          strings: "LEAF"
          strings: "BRANCH_LEQ"
          strings: "LEAF"
          strings: "LEAF"
          strings: "BRANCH_LEQ"
          strings: "BRANCH_LEQ"
          strings: "LEAF"
          strings: "BRANCH_LEQ"
          strings: "LEAF"
          strings: "LEAF"
          strings: "BRANCH_LEQ"
          strings: "BRANCH_LEQ"
          strings: "BRANCH_LEQ"
          strings: "BRANCH_LEQ"
          strings: "BRANCH_LEQ"
          strings: "LEAF"
          strings: "LEAF"
          strings: "BRANCH_LEQ"
          strings: "LEAF"
          strings: "LEAF"
          strings: "BRANCH_LEQ"
          strings: "LEAF"
          strings: "BRANCH_LEQ"
          strings: "LEAF"
          strings: "LEAF"
          strings: "BRANCH_LEQ"
          strings: "BRANCH_LEQ"
          strings: "BRANCH_LEQ"
          strings: "LEAF"
          strings: "LEAF"
          strings: "BRANCH_LEQ"
          strings: "LEAF"
          strings: "LEAF"
          strings: "BRANCH_LEQ"
          strings: "BRANCH_LEQ"
          strings: "LEAF"
          strings: "LEAF"
          strings: "LEAF"
          strings: "BRANCH_LEQ"
          strings: "BRANCH_LEQ"
          strings: "BRANCH_LEQ"
          strings: "BRANCH_LEQ"
          strings: "LEAF"
          strings: "LEAF"
          strings: "BRANCH_LEQ"
          strings: "LEAF"
          strings: "LEAF"
          strings: "BRANCH_LEQ"
          strings: "BRANCH_LEQ"
          strings: "LEAF"
          strings: "LEAF"
          strings: "BRANCH_LEQ"
          strings: "LEAF"
          strings: "LEAF"
          strings: "BRANCH_LEQ"
          strings: "BRANCH_LEQ"
          strings: "LEAF"
          strings: "BRANCH_LEQ"
          strings: "LEAF"
          strings: "LEAF"
          strings: "LEAF"
          type: STRINGS
        }
        attribute {
          name: "nodes_nodeids"
          ints: 0
          ints: 1
          ints: 2
          ints: 3
          ints: 4
          ints: 5
          ints: 6
          ints: 7
          ints: 8
          ints: 9
          ints: 10
          ints: 11
          ints: 12
          ints: 13
          ints: 14
          ints: 15
          ints: 16
          ints: 17
          ints: 18
          ints: 19
          ints: 20
          ints: 21
          ints: 22
          ints: 23
          ints: 24
          ints: 25
          ints: 26
          ints: 27
          ints: 28
          ints: 29
          ints: 30
          ints: 31
          ints: 32
          ints: 33
          ints: 34
          ints: 35
          ints: 36
          ints: 37
          ints: 38
          ints: 39
          ints: 40
          ints: 41
          ints: 42
          ints: 43
          ints: 44
          ints: 45
          ints: 46
          ints: 47
          ints: 48
          ints: 49
          ints: 50
          ints: 51
          ints: 52
          ints: 53
          ints: 54
          ints: 55
          ints: 56
          ints: 57
          ints: 58
          ints: 59
          ints: 60
          ints: 61
          ints: 62
          ints: 63
          ints: 64
          ints: 65
          ints: 66
          ints: 67
          ints: 68
          ints: 69
          ints: 70
          ints: 71
          ints: 72
          ints: 73
          ints: 74
          ints: 75
          ints: 76
          ints: 77
          ints: 78
          ints: 79
          ints: 80
          ints: 81
          ints: 82
          ints: 83
          ints: 84
          ints: 85
          ints: 86
          ints: 87
          ints: 88
          ints: 89
          ints: 90
          ints: 91
          ints: 92
          ints: 93
          ints: 94
          ints: 95
          ints: 96
          ints: 97
          ints: 98
          type: INTS
        }
        attribute {
          name: "nodes_treeids"
          ints: 0
          ints: 0
          ints: 0
          ints: 0
          ints: 0
          ints: 0
          ints: 0
          ints: 0
          ints: 0
          ints: 0
          ints: 0
          ints: 0
          ints: 0
          ints: 0
          ints: 0
          ints: 0
          ints: 0
          ints: 0
          ints: 0
          ints: 0
          ints: 0
          ints: 0
          ints: 0
          ints: 0
          ints: 0
          ints: 0
          ints: 0
          ints: 0
          ints: 0
          ints: 0
          ints: 0
          ints: 0
          ints: 0
          ints: 0
          ints: 0
          ints: 0
          ints: 0
          ints: 0
          ints: 0
          ints: 0
          ints: 0
          ints: 0
          ints: 0
          ints: 0
          ints: 0
          ints: 0
          ints: 0
          ints: 0
          ints: 0
          ints: 0
          ints: 0
          ints: 0
          ints: 0
          ints: 0
          ints: 0
          ints: 0
          ints: 0
          ints: 0
          ints: 0
          ints: 0
          ints: 0
          ints: 0
          ints: 0
          ints: 0
          ints: 0
          ints: 0
          ints: 0
          ints: 0
          ints: 0
          ints: 0
          ints: 0
          ints: 0
          ints: 0
          ints: 0
          ints: 0
          ints: 0
          ints: 0
          ints: 0
          ints: 0
          ints: 0
          ints: 0
          ints: 0
          ints: 0
          ints: 0
          ints: 0
          ints: 0
          ints: 0
          ints: 0
          ints: 0
          ints: 0
          ints: 0
          ints: 0
          ints: 0
          ints: 0
          ints: 0
          ints: 0
          ints: 0
          ints: 0
          ints: 0
          type: INTS
        }
        attribute {
          name: "nodes_truenodeids"
          ints: 1
          ints: 2
          ints: 3
          ints: 0
          ints: 5
          ints: 6
          ints: 7
          ints: 8
          ints: 0
          ints: 0
          ints: 11
          ints: 0
          ints: 0
          ints: 14
          ints: 15
          ints: 0
          ints: 0
          ints: 18
          ints: 0
          ints: 0
          ints: 0
          ints: 22
          ints: 23
          ints: 24
          ints: 0
          ints: 0
          ints: 27
          ints: 28
          ints: 0
          ints: 0
          ints: 31
          ints: 0
          ints: 33
          ints: 0
          ints: 0
          ints: 36
          ints: 37
          ints: 0
          ints: 0
          ints: 40
          ints: 0
          ints: 0
          ints: 43
          ints: 44
          ints: 0
          ints: 46
          ints: 0
          ints: 0
          ints: 49
          ints: 50
          ints: 51
          ints: 52
          ints: 53
          ints: 0
          ints: 0
          ints: 56
          ints: 0
          ints: 0
          ints: 59
          ints: 0
          ints: 61
          ints: 0
          ints: 0
          ints: 64
          ints: 65
          ints: 66
          ints: 0
          ints: 0
          ints: 69
          ints: 0
          ints: 0
          ints: 72
          ints: 73
          ints: 0
          ints: 0
          ints: 0
          ints: 77
          ints: 78
          ints: 79
          ints: 80
          ints: 0
          ints: 0
          ints: 83
          ints: 0
          ints: 0
          ints: 86
          ints: 87
          ints: 0
          ints: 0
          ints: 90
          ints: 0
          ints: 0
          ints: 93
          ints: 94
          ints: 0
          ints: 96
          ints: 0
          ints: 0
          ints: 0
          type: INTS
        }
        attribute {
          name: "nodes_values"
          floats: -2.053802013397217
          floats: -3.200650930404663
          floats: -5.488938808441162
          floats: 0.0
          floats: 8.215868949890137
          floats: -4.377075672149658
          floats: -4.836421489715576
          floats: -5.049415588378906
          floats: 0.0
          floats: 0.0
          floats: 6.391412734985352
          floats: 0.0
          floats: 0.0
          floats: -3.434645652770996
          floats: -4.083272457122803
          floats: 0.0
          floats: 0.0
          floats: -3.2970447540283203
          floats: 0.0
          floats: 0.0
          floats: 0.0
          floats: -2.5612633228302
          floats: 5.275885105133057
          floats: -2.7438883781433105
          floats: 0.0
          floats: 0.0
          floats: 6.522202491760254
          floats: 6.179261684417725
          floats: 0.0
          floats: 0.0
          floats: -3.157365083694458
          floats: 0.0
          floats: 6.988762855529785
          floats: 0.0
          floats: 0.0
          floats: -2.4315316677093506
          floats: -2.463947057723999
          floats: 0.0
          floats: 0.0
          floats: -2.3566646575927734
          floats: 0.0
          floats: 0.0
          floats: -10.268082618713379
          floats: 4.392209529876709
          floats: 0.0
          floats: 5.249717712402344
          floats: 0.0
          floats: 0.0
          floats: 4.597748756408691
          floats: -5.603768825531006
          floats: 1.0535786151885986
          floats: -6.417882919311523
          floats: -0.4238821268081665
          floats: 0.0
          floats: 0.0
          floats: -5.6843791007995605
          floats: 0.0
          floats: 0.0
          floats: 3.0455310344696045
          floats: 0.0
          floats: -7.804874420166016
          floats: 0.0
          floats: 0.0
          floats: 0.6428394317626953
          floats: -0.263675332069397
          floats: -1.7125567197799683
          floats: 0.0
          floats: 0.0
          floats: -3.7208471298217773
          floats: 0.0
          floats: 0.0
          floats: 1.2052323818206787
          floats: -3.6088178157806396
          floats: 0.0
          floats: 0.0
          floats: 0.0
          floats: -7.994720935821533
          floats: -9.222672462463379
          floats: -9.795199394226074
          floats: 5.132007122039795
          floats: 0.0
          floats: 0.0
          floats: 5.0949249267578125
          floats: 0.0
          floats: 0.0
          floats: -8.730737686157227
          floats: -8.894113540649414
          floats: 0.0
          floats: 0.0
          floats: -8.253504753112793
          floats: 0.0
          floats: 0.0
          floats: 5.371306896209717
          floats: -7.526185035705566
          floats: 0.0
          floats: 5.313436985015869
          floats: 0.0
          floats: 0.0
          floats: 0.0
          type: FLOATS
        }
        attribute {
          name: "post_transform"
          s: "NONE"
          type: STRING
        }
        attribute {
          name: "target_ids"
          ints: 0
          ints: 0
          ints: 0
          ints: 0
          ints: 0
          ints: 0
          ints: 0
          ints: 0
          ints: 0
          ints: 0
          ints: 0
          ints: 0
          ints: 0
          ints: 0
          ints: 0
          ints: 0
          ints: 0
          ints: 0
          ints: 0
          ints: 0
          ints: 0
          ints: 0
          ints: 0
          ints: 0
          ints: 0
          ints: 0
          ints: 0
          ints: 0
          ints: 0
          ints: 0
          ints: 0
          ints: 0
          ints: 0
          ints: 0
          ints: 0
          ints: 0
          ints: 0
          ints: 0
          ints: 0
          ints: 0
          ints: 0
          ints: 0
          ints: 0
          ints: 0
          ints: 0
          ints: 0
          ints: 0
          ints: 0
          ints: 0
          ints: 0
          type: INTS
        }
        attribute {
          name: "target_nodeids"
          ints: 3
          ints: 8
          ints: 9
          ints: 11
          ints: 12
          ints: 15
          ints: 16
          ints: 18
          ints: 19
          ints: 20
          ints: 24
          ints: 25
          ints: 28
          ints: 29
          ints: 31
          ints: 33
          ints: 34
          ints: 37
          ints: 38
          ints: 40
          ints: 41
          ints: 44
          ints: 46
          ints: 47
          ints: 53
          ints: 54
          ints: 56
          ints: 57
          ints: 59
          ints: 61
          ints: 62
          ints: 66
          ints: 67
          ints: 69
          ints: 70
          ints: 73
          ints: 74
          ints: 75
          ints: 80
          ints: 81
          ints: 83
          ints: 84
          ints: 87
          ints: 88
          ints: 90
          ints: 91
          ints: 94
          ints: 96
          ints: 97
          ints: 98
          type: INTS
        }
        attribute {
          name: "target_treeids"
          ints: 0
          ints: 0
          ints: 0
          ints: 0
          ints: 0
          ints: 0
          ints: 0
          ints: 0
          ints: 0
          ints: 0
          ints: 0
          ints: 0
          ints: 0
          ints: 0
          ints: 0
          ints: 0
          ints: 0
          ints: 0
          ints: 0
          ints: 0
          ints: 0
          ints: 0
          ints: 0
          ints: 0
          ints: 0
          ints: 0
          ints: 0
          ints: 0
          ints: 0
          ints: 0
          ints: 0
          ints: 0
          ints: 0
          ints: 0
          ints: 0
          ints: 0
          ints: 0
          ints: 0
          ints: 0
          ints: 0
          ints: 0
          ints: 0
          ints: 0
          ints: 0
          ints: 0
          ints: 0
          ints: 0
          ints: 0
          ints: 0
          ints: 0
          type: INTS
        }
        attribute {
          name: "target_weights"
          floats: 3.0
          floats: 8.0
          floats: 9.0
          floats: 11.0
          floats: 12.0
          floats: 15.0
          floats: 16.0
          floats: 18.0
          floats: 19.0
          floats: 20.0
          floats: 24.0
          floats: 25.0
          floats: 28.0
          floats: 29.0
          floats: 31.0
          floats: 33.0
          floats: 34.0
          floats: 37.0
          floats: 38.0
          floats: 40.0
          floats: 41.0
          floats: 44.0
          floats: 46.0
          floats: 47.0
          floats: 53.0
          floats: 54.0
          floats: 56.0
          floats: 57.0
          floats: 59.0
          floats: 61.0
          floats: 62.0
          floats: 66.0
          floats: 67.0
          floats: 69.0
          floats: 70.0
          floats: 73.0
          floats: 74.0
          floats: 75.0
          floats: 80.0
          floats: 81.0
          floats: 83.0
          floats: 84.0
          floats: 87.0
          floats: 88.0
          floats: 90.0
          floats: 91.0
          floats: 94.0
          floats: 96.0
          floats: 97.0
          floats: 98.0
          type: FLOATS
        }
        domain: "ai.onnx.ml"
      }
      node {
        input: "X"
        input: "node_sample0_Gathercst"
        output: "node_sample2_output0"
        name: "node_sample2_Gather"
        op_type: "Gather"
        attribute {
          name: "axis"
          i: 1
          type: INT
        }
        domain: ""
      }
      node {
        input: "node_sample0_Y0"
        output: "node_sample0_output01"
        name: "node_sample0_Cast"
        op_type: "Cast"
        attribute {
          name: "to"
          i: 7
          type: INT
        }
        domain: ""
      }
      node {
        input: "node_sample1_output0"
        output: "node_sample1_Y0"
        name: "node_sample1_TreeEnsembleRegressor"
        op_type: "TreeEnsembleRegressor"
        attribute {
          name: "n_targets"
          i: 1
          type: INT
        }
        attribute {
          name: "nodes_falsenodeids"
          ints: 62
          ints: 37
          ints: 24
          ints: 11
          ints: 6
          ints: 0
          ints: 8
          ints: 0
          ints: 10
          ints: 0
          ints: 0
          ints: 19
          ints: 16
          ints: 15
          ints: 0
          ints: 0
          ints: 18
          ints: 0
          ints: 0
          ints: 23
          ints: 22
          ints: 0
          ints: 0
          ints: 0
          ints: 36
          ints: 29
          ints: 28
          ints: 0
          ints: 0
          ints: 33
          ints: 32
          ints: 0
          ints: 0
          ints: 35
          ints: 0
          ints: 0
          ints: 0
          ints: 49
          ints: 42
          ints: 41
          ints: 0
          ints: 0
          ints: 48
          ints: 45
          ints: 0
          ints: 47
          ints: 0
          ints: 0
          ints: 0
          ints: 55
          ints: 52
          ints: 0
          ints: 54
          ints: 0
          ints: 0
          ints: 61
          ints: 60
          ints: 59
          ints: 0
          ints: 0
          ints: 0
          ints: 0
          ints: 94
          ints: 89
          ints: 78
          ints: 71
          ints: 68
          ints: 0
          ints: 70
          ints: 0
          ints: 0
          ints: 75
          ints: 74
          ints: 0
          ints: 0
          ints: 77
          ints: 0
          ints: 0
          ints: 86
          ints: 83
          ints: 82
          ints: 0
          ints: 0
          ints: 85
          ints: 0
          ints: 0
          ints: 88
          ints: 0
          ints: 0
          ints: 91
          ints: 0
          ints: 93
          ints: 0
          ints: 0
          ints: 104
          ints: 103
          ints: 102
          ints: 99
          ints: 0
          ints: 101
          ints: 0
          ints: 0
          ints: 0
          ints: 0
          ints: 110
          ints: 109
          ints: 108
          ints: 0
          ints: 0
          ints: 0
          ints: 0
          type: INTS
        }
        attribute {
          name: "nodes_featureids"
          ints: 1
          ints: 0
          ints: 1
          ints: 1
          ints: 0
          ints: 0
          ints: 0
          ints: 0
          ints: 0
          ints: 0
          ints: 0
          ints: 0
          ints: 1
          ints: 1
          ints: 0
          ints: 0
          ints: 0
          ints: 0
          ints: 0
          ints: 1
          ints: 1
          ints: 0
          ints: 0
          ints: 0
          ints: 0
          ints: 1
          ints: 0
          ints: 0
          ints: 0
          ints: 0
          ints: 0
          ints: 0
          ints: 0
          ints: 1
          ints: 0
          ints: 0
          ints: 0
          ints: 1
          ints: 1
          ints: 1
          ints: 0
          ints: 0
          ints: 0
          ints: 0
          ints: 0
          ints: 1
          ints: 0
          ints: 0
          ints: 0
          ints: 1
          ints: 0
          ints: 0
          ints: 0
          ints: 0
          ints: 0
          ints: 0
          ints: 1
          ints: 0
          ints: 0
          ints: 0
          ints: 0
          ints: 0
          ints: 1
          ints: 1
          ints: 1
          ints: 0
          ints: 0
          ints: 0
          ints: 1
          ints: 0
          ints: 0
          ints: 1
          ints: 1
          ints: 0
          ints: 0
          ints: 0
          ints: 0
          ints: 0
          ints: 0
          ints: 1
          ints: 1
          ints: 0
          ints: 0
          ints: 1
          ints: 0
          ints: 0
          ints: 1
          ints: 0
          ints: 0
          ints: 1
          ints: 0
          ints: 0
          ints: 0
          ints: 0
          ints: 1
          ints: 1
          ints: 0
          ints: 1
          ints: 0
          ints: 1
          ints: 0
          ints: 0
          ints: 0
          ints: 0
          ints: 1
          ints: 0
          ints: 0
          ints: 0
          ints: 0
          ints: 0
          ints: 0
          type: INTS
        }
        attribute {
          name: "nodes_hitrates"
          floats: 1.0
          floats: 1.0
          floats: 1.0
          floats: 1.0
          floats: 1.0
          floats: 1.0
          floats: 1.0
          floats: 1.0
          floats: 1.0
          floats: 1.0
          floats: 1.0
          floats: 1.0
          floats: 1.0
          floats: 1.0
          floats: 1.0
          floats: 1.0
          floats: 1.0
          floats: 1.0
          floats: 1.0
          floats: 1.0
          floats: 1.0
          floats: 1.0
          floats: 1.0
          floats: 1.0
          floats: 1.0
          floats: 1.0
          floats: 1.0
          floats: 1.0
          floats: 1.0
          floats: 1.0
          floats: 1.0
          floats: 1.0
          floats: 1.0
          floats: 1.0
          floats: 1.0
          floats: 1.0
          floats: 1.0
          floats: 1.0
          floats: 1.0
          floats: 1.0
          floats: 1.0
          floats: 1.0
          floats: 1.0
          floats: 1.0
          floats: 1.0
          floats: 1.0
          floats: 1.0
          floats: 1.0
          floats: 1.0
          floats: 1.0
          floats: 1.0
          floats: 1.0
          floats: 1.0
          floats: 1.0
          floats: 1.0
          floats: 1.0
          floats: 1.0
          floats: 1.0
          floats: 1.0
          floats: 1.0
          floats: 1.0
          floats: 1.0
          floats: 1.0
          floats: 1.0
          floats: 1.0
          floats: 1.0
          floats: 1.0
          floats: 1.0
          floats: 1.0
          floats: 1.0
          floats: 1.0
          floats: 1.0
          floats: 1.0
          floats: 1.0
          floats: 1.0
          floats: 1.0
          floats: 1.0
          floats: 1.0
          floats: 1.0
          floats: 1.0
          floats: 1.0
          floats: 1.0
          floats: 1.0
          floats: 1.0
          floats: 1.0
          floats: 1.0
          floats: 1.0
          floats: 1.0
          floats: 1.0
          floats: 1.0
          floats: 1.0
          floats: 1.0
          floats: 1.0
          floats: 1.0
          floats: 1.0
          floats: 1.0
          floats: 1.0
          floats: 1.0
          floats: 1.0
          floats: 1.0
          floats: 1.0
          floats: 1.0
          floats: 1.0
          floats: 1.0
          floats: 1.0
          floats: 1.0
          floats: 1.0
          floats: 1.0
          floats: 1.0
          floats: 1.0
          floats: 1.0
          type: FLOATS
        }
        attribute {
          name: "nodes_missing_value_tracks_true"
          ints: 0
          ints: 0
          ints: 0
          ints: 0
          ints: 0
          ints: 0
          ints: 0
          ints: 0
          ints: 0
          ints: 0
          ints: 0
          ints: 0
          ints: 0
          ints: 0
          ints: 0
          ints: 0
          ints: 0
          ints: 0
          ints: 0
          ints: 0
          ints: 0
          ints: 0
          ints: 0
          ints: 0
          ints: 0
          ints: 0
          ints: 0
          ints: 0
          ints: 0
          ints: 0
          ints: 0
          ints: 0
          ints: 0
          ints: 0
          ints: 0
          ints: 0
          ints: 0
          ints: 0
          ints: 0
          ints: 0
          ints: 0
          ints: 0
          ints: 0
          ints: 0
          ints: 0
          ints: 0
          ints: 0
          ints: 0
          ints: 0
          ints: 0
          ints: 0
          ints: 0
          ints: 0
          ints: 0
          ints: 0
          ints: 0
          ints: 0
          ints: 0
          ints: 0
          ints: 0
          ints: 0
          ints: 0
          ints: 0
          ints: 0
          ints: 0
          ints: 0
          ints: 0
          ints: 0
          ints: 0
          ints: 0
          ints: 0
          ints: 0
          ints: 0
          ints: 0
          ints: 0
          ints: 0
          ints: 0
          ints: 0
          ints: 0
          ints: 0
          ints: 0
          ints: 0
          ints: 0
          ints: 0
          ints: 0
          ints: 0
          ints: 0
          ints: 0
          ints: 0
          ints: 0
          ints: 0
          ints: 0
          ints: 0
          ints: 0
          ints: 0
          ints: 0
          ints: 0
          ints: 0
          ints: 0
          ints: 0
          ints: 0
          ints: 0
          ints: 0
          ints: 0
          ints: 0
          ints: 0
          ints: 0
          ints: 0
          ints: 0
          ints: 0
          ints: 0
          type: INTS
        }
        attribute {
          name: "nodes_modes"
          strings: "BRANCH_LEQ"
          strings: "BRANCH_LEQ"
          strings: "BRANCH_LEQ"
          strings: "BRANCH_LEQ"
          strings: "BRANCH_LEQ"
          strings: "LEAF"
          strings: "BRANCH_LEQ"
          strings: "LEAF"
          strings: "BRANCH_LEQ"
          strings: "LEAF"
          strings: "LEAF"
          strings: "BRANCH_LEQ"
          strings: "BRANCH_LEQ"
          strings: "BRANCH_LEQ"
          strings: "LEAF"
          strings: "LEAF"
          strings: "BRANCH_LEQ"
          strings: "LEAF"
          strings: "LEAF"
          strings: "BRANCH_LEQ"
          strings: "BRANCH_LEQ"
          strings: "LEAF"
          strings: "LEAF"
          strings: "LEAF"
          strings: "BRANCH_LEQ"
          strings: "BRANCH_LEQ"
          strings: "BRANCH_LEQ"
          strings: "LEAF"
          strings: "LEAF"
          strings: "BRANCH_LEQ"
          strings: "BRANCH_LEQ"
          strings: "LEAF"
          strings: "LEAF"
          strings: "BRANCH_LEQ"
          strings: "LEAF"
          strings: "LEAF"
          strings: "LEAF"
          strings: "BRANCH_LEQ"
          strings: "BRANCH_LEQ"
          strings: "BRANCH_LEQ"
          strings: "LEAF"
          strings: "LEAF"
          strings: "BRANCH_LEQ"
          strings: "BRANCH_LEQ"
          strings: "LEAF"
          strings: "BRANCH_LEQ"
          strings: "LEAF"
          strings: "LEAF"
          strings: "LEAF"
          strings: "BRANCH_LEQ"
          strings: "BRANCH_LEQ"
          strings: "LEAF"
          strings: "BRANCH_LEQ"
          strings: "LEAF"
          strings: "LEAF"
          strings: "BRANCH_LEQ"
          strings: "BRANCH_LEQ"
          strings: "BRANCH_LEQ"
          strings: "LEAF"
          strings: "LEAF"
          strings: "LEAF"
          strings: "LEAF"
          strings: "BRANCH_LEQ"
          strings: "BRANCH_LEQ"
          strings: "BRANCH_LEQ"
          strings: "BRANCH_LEQ"
          strings: "BRANCH_LEQ"
          strings: "LEAF"
          strings: "BRANCH_LEQ"
          strings: "LEAF"
          strings: "LEAF"
          strings: "BRANCH_LEQ"
          strings: "BRANCH_LEQ"
          strings: "LEAF"
          strings: "LEAF"
          strings: "BRANCH_LEQ"
          strings: "LEAF"
          strings: "LEAF"
          strings: "BRANCH_LEQ"
          strings: "BRANCH_LEQ"
          strings: "BRANCH_LEQ"
          strings: "LEAF"
          strings: "LEAF"
          strings: "BRANCH_LEQ"
          strings: "LEAF"
          strings: "LEAF"
          strings: "BRANCH_LEQ"
          strings: "LEAF"
          strings: "LEAF"
          strings: "BRANCH_LEQ"
          strings: "LEAF"
          strings: "BRANCH_LEQ"
          strings: "LEAF"
          strings: "LEAF"
          strings: "BRANCH_LEQ"
          strings: "BRANCH_LEQ"
          strings: "BRANCH_LEQ"
          strings: "BRANCH_LEQ"
          strings: "LEAF"
          strings: "BRANCH_LEQ"
          strings: "LEAF"
          strings: "LEAF"
          strings: "LEAF"
          strings: "LEAF"
          strings: "BRANCH_LEQ"
          strings: "BRANCH_LEQ"
          strings: "BRANCH_LEQ"
          strings: "LEAF"
          strings: "LEAF"
          strings: "LEAF"
          strings: "LEAF"
          type: STRINGS
        }
        attribute {
          name: "nodes_nodeids"
          ints: 0
          ints: 1
          ints: 2
          ints: 3
          ints: 4
          ints: 5
          ints: 6
          ints: 7
          ints: 8
          ints: 9
          ints: 10
          ints: 11
          ints: 12
          ints: 13
          ints: 14
          ints: 15
          ints: 16
          ints: 17
          ints: 18
          ints: 19
          ints: 20
          ints: 21
          ints: 22
          ints: 23
          ints: 24
          ints: 25
          ints: 26
          ints: 27
          ints: 28
          ints: 29
          ints: 30
          ints: 31
          ints: 32
          ints: 33
          ints: 34
          ints: 35
          ints: 36
          ints: 37
          ints: 38
          ints: 39
          ints: 40
          ints: 41
          ints: 42
          ints: 43
          ints: 44
          ints: 45
          ints: 46
          ints: 47
          ints: 48
          ints: 49
          ints: 50
          ints: 51
          ints: 52
          ints: 53
          ints: 54
          ints: 55
          ints: 56
          ints: 57
          ints: 58
          ints: 59
          ints: 60
          ints: 61
          ints: 62
          ints: 63
          ints: 64
          ints: 65
          ints: 66
          ints: 67
          ints: 68
          ints: 69
          ints: 70
          ints: 71
          ints: 72
          ints: 73
          ints: 74
          ints: 75
          ints: 76
          ints: 77
          ints: 78
          ints: 79
          ints: 80
          ints: 81
          ints: 82
          ints: 83
          ints: 84
          ints: 85
          ints: 86
          ints: 87
          ints: 88
          ints: 89
          ints: 90
          ints: 91
          ints: 92
          ints: 93
          ints: 94
          ints: 95
          ints: 96
          ints: 97
          ints: 98
          ints: 99
          ints: 100
          ints: 101
          ints: 102
          ints: 103
          ints: 104
          ints: 105
          ints: 106
          ints: 107
          ints: 108
          ints: 109
          ints: 110
          type: INTS
        }
        attribute {
          name: "nodes_treeids"
          ints: 0
          ints: 0
          ints: 0
          ints: 0
          ints: 0
          ints: 0
          ints: 0
          ints: 0
          ints: 0
          ints: 0
          ints: 0
          ints: 0
          ints: 0
          ints: 0
          ints: 0
          ints: 0
          ints: 0
          ints: 0
          ints: 0
          ints: 0
          ints: 0
          ints: 0
          ints: 0
          ints: 0
          ints: 0
          ints: 0
          ints: 0
          ints: 0
          ints: 0
          ints: 0
          ints: 0
          ints: 0
          ints: 0
          ints: 0
          ints: 0
          ints: 0
          ints: 0
          ints: 0
          ints: 0
          ints: 0
          ints: 0
          ints: 0
          ints: 0
          ints: 0
          ints: 0
          ints: 0
          ints: 0
          ints: 0
          ints: 0
          ints: 0
          ints: 0
          ints: 0
          ints: 0
          ints: 0
          ints: 0
          ints: 0
          ints: 0
          ints: 0
          ints: 0
          ints: 0
          ints: 0
          ints: 0
          ints: 0
          ints: 0
          ints: 0
          ints: 0
          ints: 0
          ints: 0
          ints: 0
          ints: 0
          ints: 0
          ints: 0
          ints: 0
          ints: 0
          ints: 0
          ints: 0
          ints: 0
          ints: 0
          ints: 0
          ints: 0
          ints: 0
          ints: 0
          ints: 0
          ints: 0
          ints: 0
          ints: 0
          ints: 0
          ints: 0
          ints: 0
          ints: 0
          ints: 0
          ints: 0
          ints: 0
          ints: 0
          ints: 0
          ints: 0
          ints: 0
          ints: 0
          ints: 0
          ints: 0
          ints: 0
          ints: 0
          ints: 0
          ints: 0
          ints: 0
          ints: 0
          ints: 0
          ints: 0
          ints: 0
          ints: 0
          ints: 0
          type: INTS
        }
        attribute {
          name: "nodes_truenodeids"
          ints: 1
          ints: 2
          ints: 3
          ints: 4
          ints: 5
          ints: 0
          ints: 7
          ints: 0
          ints: 9
          ints: 0
          ints: 0
          ints: 12
          ints: 13
          ints: 14
          ints: 0
          ints: 0
          ints: 17
          ints: 0
          ints: 0
          ints: 20
          ints: 21
          ints: 0
          ints: 0
          ints: 0
          ints: 25
          ints: 26
          ints: 27
          ints: 0
          ints: 0
          ints: 30
          ints: 31
          ints: 0
          ints: 0
          ints: 34
          ints: 0
          ints: 0
          ints: 0
          ints: 38
          ints: 39
          ints: 40
          ints: 0
          ints: 0
          ints: 43
          ints: 44
          ints: 0
          ints: 46
          ints: 0
          ints: 0
          ints: 0
          ints: 50
          ints: 51
          ints: 0
          ints: 53
          ints: 0
          ints: 0
          ints: 56
          ints: 57
          ints: 58
          ints: 0
          ints: 0
          ints: 0
          ints: 0
          ints: 63
          ints: 64
          ints: 65
          ints: 66
          ints: 67
          ints: 0
          ints: 69
          ints: 0
          ints: 0
          ints: 72
          ints: 73
          ints: 0
          ints: 0
          ints: 76
          ints: 0
          ints: 0
          ints: 79
          ints: 80
          ints: 81
          ints: 0
          ints: 0
          ints: 84
          ints: 0
          ints: 0
          ints: 87
          ints: 0
          ints: 0
          ints: 90
          ints: 0
          ints: 92
          ints: 0
          ints: 0
          ints: 95
          ints: 96
          ints: 97
          ints: 98
          ints: 0
          ints: 100
          ints: 0
          ints: 0
          ints: 0
          ints: 0
          ints: 105
          ints: 106
          ints: 107
          ints: 0
          ints: 0
          ints: 0
          ints: 0
          type: INTS
        }
        attribute {
          name: "nodes_values"
          floats: 2.6714601516723633
          floats: 6.249317169189453
          floats: -0.6032955646514893
          floats: -2.380410671234131
          floats: 3.2011525630950928
          floats: 0.0
          floats: 4.705559730529785
          floats: 0.0
          floats: 4.837026596069336
          floats: 0.0
          floats: 0.0
          floats: -1.6598427295684814
          floats: -1.5696858167648315
          floats: -1.9945262670516968
          floats: 0.0
          floats: 0.0
          floats: -3.500002384185791
          floats: 0.0
          floats: 0.0
          floats: -1.5764787197113037
          floats: -2.3408241271972656
          floats: 0.0
          floats: 0.0
          floats: 0.0
          floats: -2.1465039253234863
          floats: -0.4102898836135864
          floats: -4.154178619384766
          floats: 0.0
          floats: 0.0
          floats: -4.910345554351807
          floats: -5.6205220222473145
          floats: 0.0
          floats: 0.0
          floats: 0.13794247806072235
          floats: 0.0
          floats: 0.0
          floats: 0.0
          floats: -3.194903612136841
          floats: -4.798050403594971
          floats: -5.376684665679932
          floats: 0.0
          floats: 0.0
          floats: 7.780486106872559
          floats: 6.770364761352539
          floats: 0.0
          floats: -3.4277381896972656
          floats: 0.0
          floats: 0.0
          floats: 0.0
          floats: -2.7412171363830566
          floats: 6.467540740966797
          floats: 0.0
          floats: 6.909143447875977
          floats: 0.0
          floats: 0.0
          floats: 7.293152332305908
          floats: -2.515254497528076
          floats: 6.650646686553955
          floats: 0.0
          floats: 0.0
          floats: 0.0
          floats: 0.0
          floats: 5.245765209197998
          floats: 5.102800369262695
          floats: 4.270188808441162
          floats: -9.391302108764648
          floats: -10.227547645568848
          floats: 0.0
          floats: 3.4268226623535156
          floats: 0.0
          floats: 0.0
          floats: 3.2697641849517822
          floats: 3.074000597000122
          floats: 0.0
          floats: 0.0
          floats: -8.63681411743164
          floats: 0.0
          floats: 0.0
          floats: -7.938907623291016
          floats: 4.645298004150391
          floats: 4.4387431144714355
          floats: 0.0
          floats: 0.0
          floats: 4.80067777633667
          floats: 0.0
          floats: 0.0
          floats: 4.832674503326416
          floats: 0.0
          floats: 0.0
          floats: 5.132754325866699
          floats: 0.0
          floats: -7.393733024597168
          floats: 0.0
          floats: 0.0
          floats: 5.86076021194458
          floats: 5.5471391677856445
          floats: -7.423309803009033
          floats: 5.299924373626709
          floats: 0.0
          floats: 5.387142658233643
          floats: 0.0
          floats: 0.0
          floats: 0.0
          floats: 0.0
          floats: 6.106900215148926
          floats: -8.232977867126465
          floats: -8.40837287902832
          floats: 0.0
          floats: 0.0
          floats: 0.0
          floats: 0.0
          type: FLOATS
        }
        attribute {
          name: "post_transform"
          s: "NONE"
          type: STRING
        }
        attribute {
          name: "target_ids"
          ints: 0
          ints: 0
          ints: 0
          ints: 0
          ints: 0
          ints: 0
          ints: 0
          ints: 0
          ints: 0
          ints: 0
          ints: 0
          ints: 0
          ints: 0
          ints: 0
          ints: 0
          ints: 0
          ints: 0
          ints: 0
          ints: 0
          ints: 0
          ints: 0
          ints: 0
          ints: 0
          ints: 0
          ints: 0
          ints: 0
          ints: 0
          ints: 0
          ints: 0
          ints: 0
          ints: 0
          ints: 0
          ints: 0
          ints: 0
          ints: 0
          ints: 0
          ints: 0
          ints: 0
          ints: 0
          ints: 0
          ints: 0
          ints: 0
          ints: 0
          ints: 0
          ints: 0
          ints: 0
          ints: 0
          ints: 0
          ints: 0
          ints: 0
          ints: 0
          ints: 0
          ints: 0
          ints: 0
          ints: 0
          ints: 0
          type: INTS
        }
        attribute {
          name: "target_nodeids"
          ints: 5
          ints: 7
          ints: 9
          ints: 10
          ints: 14
          ints: 15
          ints: 17
          ints: 18
          ints: 21
          ints: 22
          ints: 23
          ints: 27
          ints: 28
          ints: 31
          ints: 32
          ints: 34
          ints: 35
          ints: 36
          ints: 40
          ints: 41
          ints: 44
          ints: 46
          ints: 47
          ints: 48
          ints: 51
          ints: 53
          ints: 54
          ints: 58
          ints: 59
          ints: 60
          ints: 61
          ints: 67
          ints: 69
          ints: 70
          ints: 73
          ints: 74
          ints: 76
          ints: 77
          ints: 81
          ints: 82
          ints: 84
          ints: 85
          ints: 87
          ints: 88
          ints: 90
          ints: 92
          ints: 93
          ints: 98
          ints: 100
          ints: 101
          ints: 102
          ints: 103
          ints: 107
          ints: 108
          ints: 109
          ints: 110
          type: INTS
        }
        attribute {
          name: "target_treeids"
          ints: 0
          ints: 0
          ints: 0
          ints: 0
          ints: 0
          ints: 0
          ints: 0
          ints: 0
          ints: 0
          ints: 0
          ints: 0
          ints: 0
          ints: 0
          ints: 0
          ints: 0
          ints: 0
          ints: 0
          ints: 0
          ints: 0
          ints: 0
          ints: 0
          ints: 0
          ints: 0
          ints: 0
          ints: 0
          ints: 0
          ints: 0
          ints: 0
          ints: 0
          ints: 0
          ints: 0
          ints: 0
          ints: 0
          ints: 0
          ints: 0
          ints: 0
          ints: 0
          ints: 0
          ints: 0
          ints: 0
          ints: 0
          ints: 0
          ints: 0
          ints: 0
          ints: 0
          ints: 0
          ints: 0
          ints: 0
          ints: 0
          ints: 0
          ints: 0
          ints: 0
          ints: 0
          ints: 0
          ints: 0
          ints: 0
          type: INTS
        }
        attribute {
          name: "target_weights"
          floats: 5.0
          floats: 7.0
          floats: 9.0
          floats: 10.0
          floats: 14.0
          floats: 15.0
          floats: 17.0
          floats: 18.0
          floats: 21.0
          floats: 22.0
          floats: 23.0
          floats: 27.0
          floats: 28.0
          floats: 31.0
          floats: 32.0
          floats: 34.0
          floats: 35.0
          floats: 36.0
          floats: 40.0
          floats: 41.0
          floats: 44.0
          floats: 46.0
          floats: 47.0
          floats: 48.0
          floats: 51.0
          floats: 53.0
          floats: 54.0
          floats: 58.0
          floats: 59.0
          floats: 60.0
          floats: 61.0
          floats: 67.0
          floats: 69.0
          floats: 70.0
          floats: 73.0
          floats: 74.0
          floats: 76.0
          floats: 77.0
          floats: 81.0
          floats: 82.0
          floats: 84.0
          floats: 85.0
          floats: 87.0
          floats: 88.0
          floats: 90.0
          floats: 92.0
          floats: 93.0
          floats: 98.0
          floats: 100.0
          floats: 101.0
          floats: 102.0
          floats: 103.0
          floats: 107.0
          floats: 108.0
          floats: 109.0
          floats: 110.0
          type: FLOATS
        }
        domain: "ai.onnx.ml"
      }
      node {
        input: "node_sample0_Y0"
        output: "path_length0_output0"
        name: "path_length0_Cast"
        op_type: "Cast"
        attribute {
          name: "to"
          i: 7
          type: INT
        }
        domain: ""
      }
      node {
        input: "node_sample2_output0"
        output: "node_sample2_Y0"
        name: "node_sample2_TreeEnsembleRegressor"
        op_type: "TreeEnsembleRegressor"
        attribute {
          name: "n_targets"
          i: 1
          type: INT
        }
        attribute {
          name: "nodes_falsenodeids"
          ints: 54
          ints: 39
          ints: 12
          ints: 9
          ints: 8
          ints: 7
          ints: 0
          ints: 0
          ints: 0
          ints: 11
          ints: 0
          ints: 0
          ints: 26
          ints: 19
          ints: 18
          ints: 17
          ints: 0
          ints: 0
          ints: 0
          ints: 23
          ints: 22
          ints: 0
          ints: 0
          ints: 25
          ints: 0
          ints: 0
          ints: 34
          ints: 31
          ints: 30
          ints: 0
          ints: 0
          ints: 33
          ints: 0
          ints: 0
          ints: 38
          ints: 37
          ints: 0
          ints: 0
          ints: 0
          ints: 53
          ints: 52
          ints: 45
          ints: 44
          ints: 0
          ints: 0
          ints: 49
          ints: 48
          ints: 0
          ints: 0
          ints: 51
          ints: 0
          ints: 0
          ints: 0
          ints: 0
          ints: 88
          ints: 71
          ints: 58
          ints: 0
          ints: 64
          ints: 61
          ints: 0
          ints: 63
          ints: 0
          ints: 0
          ints: 68
          ints: 67
          ints: 0
          ints: 0
          ints: 70
          ints: 0
          ints: 0
          ints: 81
          ints: 80
          ints: 77
          ints: 76
          ints: 0
          ints: 0
          ints: 79
          ints: 0
          ints: 0
          ints: 0
          ints: 87
          ints: 86
          ints: 85
          ints: 0
          ints: 0
          ints: 0
          ints: 0
          ints: 96
          ints: 95
          ints: 94
          ints: 93
          ints: 0
          ints: 0
          ints: 0
          ints: 0
          ints: 0
          type: INTS
        }
        attribute {
          name: "nodes_featureids"
          ints: 1
          ints: 1
          ints: 0
          ints: 0
          ints: 0
          ints: 1
          ints: 0
          ints: 0
          ints: 0
          ints: 0
          ints: 0
          ints: 0
          ints: 1
          ints: 0
          ints: 1
          ints: 1
          ints: 0
          ints: 0
          ints: 0
          ints: 0
          ints: 1
          ints: 0
          ints: 0
          ints: 1
          ints: 0
          ints: 0
          ints: 0
          ints: 1
          ints: 0
          ints: 0
          ints: 0
          ints: 1
          ints: 0
          ints: 0
          ints: 0
          ints: 0
          ints: 0
          ints: 0
          ints: 0
          ints: 0
          ints: 0
          ints: 0
          ints: 1
          ints: 0
          ints: 0
          ints: 1
          ints: 1
          ints: 0
          ints: 0
          ints: 1
          ints: 0
          ints: 0
          ints: 0
          ints: 0
          ints: 1
          ints: 0
          ints: 1
          ints: 0
          ints: 1
          ints: 1
          ints: 0
          ints: 0
          ints: 0
          ints: 0
          ints: 1
          ints: 0
          ints: 0
          ints: 0
          ints: 0
          ints: 0
          ints: 0
          ints: 1
          ints: 0
          ints: 1
          ints: 1
          ints: 0
          ints: 0
          ints: 0
          ints: 0
          ints: 0
          ints: 0
          ints: 1
          ints: 1
          ints: 1
          ints: 0
          ints: 0
          ints: 0
          ints: 0
          ints: 1
          ints: 0
          ints: 0
          ints: 1
          ints: 0
          ints: 0
          ints: 0
          ints: 0
          ints: 0
          type: INTS
        }
        attribute {
          name: "nodes_hitrates"
          floats: 1.0
          floats: 1.0
          floats: 1.0
          floats: 1.0
          floats: 1.0
          floats: 1.0
          floats: 1.0
          floats: 1.0
          floats: 1.0
          floats: 1.0
          floats: 1.0
          floats: 1.0
          floats: 1.0
          floats: 1.0
          floats: 1.0
          floats: 1.0
          floats: 1.0
          floats: 1.0
          floats: 1.0
          floats: 1.0
          floats: 1.0
          floats: 1.0
          floats: 1.0
          floats: 1.0
          floats: 1.0
          floats: 1.0
          floats: 1.0
          floats: 1.0
          floats: 1.0
          floats: 1.0
          floats: 1.0
          floats: 1.0
          floats: 1.0
          floats: 1.0
          floats: 1.0
          floats: 1.0
          floats: 1.0
          floats: 1.0
          floats: 1.0
          floats: 1.0
          floats: 1.0
          floats: 1.0
          floats: 1.0
          floats: 1.0
          floats: 1.0
          floats: 1.0
          floats: 1.0
          floats: 1.0
          floats: 1.0
          floats: 1.0
          floats: 1.0
          floats: 1.0
          floats: 1.0
          floats: 1.0
          floats: 1.0
          floats: 1.0
          floats: 1.0
          floats: 1.0
          floats: 1.0
          floats: 1.0
          floats: 1.0
          floats: 1.0
          floats: 1.0
          floats: 1.0
          floats: 1.0
          floats: 1.0
          floats: 1.0
          floats: 1.0
          floats: 1.0
          floats: 1.0
          floats: 1.0
          floats: 1.0
          floats: 1.0
          floats: 1.0
          floats: 1.0
          floats: 1.0
          floats: 1.0
          floats: 1.0
          floats: 1.0
          floats: 1.0
          floats: 1.0
          floats: 1.0
          floats: 1.0
          floats: 1.0
          floats: 1.0
          floats: 1.0
          floats: 1.0
          floats: 1.0
          floats: 1.0
          floats: 1.0
          floats: 1.0
          floats: 1.0
          floats: 1.0
          floats: 1.0
          floats: 1.0
          floats: 1.0
          floats: 1.0
          type: FLOATS
        }
        attribute {
          name: "nodes_missing_value_tracks_true"
          ints: 0
          ints: 0
          ints: 0
          ints: 0
          ints: 0
          ints: 0
          ints: 0
          ints: 0
          ints: 0
          ints: 0
          ints: 0
          ints: 0
          ints: 0
          ints: 0
          ints: 0
          ints: 0
          ints: 0
          ints: 0
          ints: 0
          ints: 0
          ints: 0
          ints: 0
          ints: 0
          ints: 0
          ints: 0
          ints: 0
          ints: 0
          ints: 0
          ints: 0
          ints: 0
          ints: 0
          ints: 0
          ints: 0
          ints: 0
          ints: 0
          ints: 0
          ints: 0
          ints: 0
          ints: 0
          ints: 0
          ints: 0
          ints: 0
          ints: 0
          ints: 0
          ints: 0
          ints: 0
          ints: 0
          ints: 0
          ints: 0
          ints: 0
          ints: 0
          ints: 0
          ints: 0
          ints: 0
          ints: 0
          ints: 0
          ints: 0
          ints: 0
          ints: 0
          ints: 0
          ints: 0
          ints: 0
          ints: 0
          ints: 0
          ints: 0
          ints: 0
          ints: 0
          ints: 0
          ints: 0
          ints: 0
          ints: 0
          ints: 0
          ints: 0
          ints: 0
          ints: 0
          ints: 0
          ints: 0
          ints: 0
          ints: 0
          ints: 0
          ints: 0
          ints: 0
          ints: 0
          ints: 0
          ints: 0
          ints: 0
          ints: 0
          ints: 0
          ints: 0
          ints: 0
          ints: 0
          ints: 0
          ints: 0
          ints: 0
          ints: 0
          ints: 0
          ints: 0
          type: INTS
        }
        attribute {
          name: "nodes_modes"
          strings: "BRANCH_LEQ"
          strings: "BRANCH_LEQ"
          strings: "BRANCH_LEQ"
          strings: "BRANCH_LEQ"
          strings: "BRANCH_LEQ"
          strings: "BRANCH_LEQ"
          strings: "LEAF"
          strings: "LEAF"
          strings: "LEAF"
          strings: "BRANCH_LEQ"
          strings: "LEAF"
          strings: "LEAF"
          strings: "BRANCH_LEQ"
          strings: "BRANCH_LEQ"
          strings: "BRANCH_LEQ"
          strings: "BRANCH_LEQ"
          strings: "LEAF"
          strings: "LEAF"
          strings: "LEAF"
          strings: "BRANCH_LEQ"
          strings: "BRANCH_LEQ"
          strings: "LEAF"
          strings: "LEAF"
          strings: "BRANCH_LEQ"
          strings: "LEAF"
          strings: "LEAF"
          strings: "BRANCH_LEQ"
          strings: "BRANCH_LEQ"
          strings: "BRANCH_LEQ"
          strings: "LEAF"
          strings: "LEAF"
          strings: "BRANCH_LEQ"
          strings: "LEAF"
          strings: "LEAF"
          strings: "BRANCH_LEQ"
          strings: "BRANCH_LEQ"
          strings: "LEAF"
          strings: "LEAF"
          strings: "LEAF"
          strings: "BRANCH_LEQ"
          strings: "BRANCH_LEQ"
          strings: "BRANCH_LEQ"
          strings: "BRANCH_LEQ"
          strings: "LEAF"
          strings: "LEAF"
          strings: "BRANCH_LEQ"
          strings: "BRANCH_LEQ"
          strings: "LEAF"
          strings: "LEAF"
          strings: "BRANCH_LEQ"
          strings: "LEAF"
          strings: "LEAF"
          strings: "LEAF"
          strings: "LEAF"
          strings: "BRANCH_LEQ"
          strings: "BRANCH_LEQ"
          strings: "BRANCH_LEQ"
          strings: "LEAF"
          strings: "BRANCH_LEQ"
          strings: "BRANCH_LEQ"
          strings: "LEAF"
          strings: "BRANCH_LEQ"
          strings: "LEAF"
          strings: "LEAF"
          strings: "BRANCH_LEQ"
          strings: "BRANCH_LEQ"
          strings: "LEAF"
          strings: "LEAF"
          strings: "BRANCH_LEQ"
          strings: "LEAF"
          strings: "LEAF"
          strings: "BRANCH_LEQ"
          strings: "BRANCH_LEQ"
          strings: "BRANCH_LEQ"
          strings: "BRANCH_LEQ"
          strings: "LEAF"
          strings: "LEAF"
          strings: "BRANCH_LEQ"
          strings: "LEAF"
          strings: "LEAF"
          strings: "LEAF"
          strings: "BRANCH_LEQ"
          strings: "BRANCH_LEQ"
          strings: "BRANCH_LEQ"
          strings: "LEAF"
          strings: "LEAF"
          strings: "LEAF"
          strings: "LEAF"
          strings: "BRANCH_LEQ"
          strings: "BRANCH_LEQ"
          strings: "BRANCH_LEQ"
          strings: "BRANCH_LEQ"
          strings: "LEAF"
          strings: "LEAF"
          strings: "LEAF"
          strings: "LEAF"
          strings: "LEAF"
          type: STRINGS
        }
        attribute {
          name: "nodes_nodeids"
          ints: 0
          ints: 1
          ints: 2
          ints: 3
          ints: 4
          ints: 5
          ints: 6
          ints: 7
          ints: 8
          ints: 9
          ints: 10
          ints: 11
          ints: 12
          ints: 13
          ints: 14
          ints: 15
          ints: 16
          ints: 17
          ints: 18
          ints: 19
          ints: 20
          ints: 21
          ints: 22
          ints: 23
          ints: 24
          ints: 25
          ints: 26
          ints: 27
          ints: 28
          ints: 29
          ints: 30
          ints: 31
          ints: 32
          ints: 33
          ints: 34
          ints: 35
          ints: 36
          ints: 37
          ints: 38
          ints: 39
          ints: 40
          ints: 41
          ints: 42
          ints: 43
          ints: 44
          ints: 45
          ints: 46
          ints: 47
          ints: 48
          ints: 49
          ints: 50
          ints: 51
          ints: 52
          ints: 53
          ints: 54
          ints: 55
          ints: 56
          ints: 57
          ints: 58
          ints: 59
          ints: 60
          ints: 61
          ints: 62
          ints: 63
          ints: 64
          ints: 65
          ints: 66
          ints: 67
          ints: 68
          ints: 69
          ints: 70
          ints: 71
          ints: 72
          ints: 73
          ints: 74
          ints: 75
          ints: 76
          ints: 77
          ints: 78
          ints: 79
          ints: 80
          ints: 81
          ints: 82
          ints: 83
          ints: 84
          ints: 85
          ints: 86
          ints: 87
          ints: 88
          ints: 89
          ints: 90
          ints: 91
          ints: 92
          ints: 93
          ints: 94
          ints: 95
          ints: 96
          type: INTS
        }
        attribute {
          name: "nodes_treeids"
          ints: 0
          ints: 0
          ints: 0
          ints: 0
          ints: 0
          ints: 0
          ints: 0
          ints: 0
          ints: 0
          ints: 0
          ints: 0
          ints: 0
          ints: 0
          ints: 0
          ints: 0
          ints: 0
          ints: 0
          ints: 0
          ints: 0
          ints: 0
          ints: 0
          ints: 0
          ints: 0
          ints: 0
          ints: 0
          ints: 0
          ints: 0
          ints: 0
          ints: 0
          ints: 0
          ints: 0
          ints: 0
          ints: 0
          ints: 0
          ints: 0
          ints: 0
          ints: 0
          ints: 0
          ints: 0
          ints: 0
          ints: 0
          ints: 0
          ints: 0
          ints: 0
          ints: 0
          ints: 0
          ints: 0
          ints: 0
          ints: 0
          ints: 0
          ints: 0
          ints: 0
          ints: 0
          ints: 0
          ints: 0
          ints: 0
          ints: 0
          ints: 0
          ints: 0
          ints: 0
          ints: 0
          ints: 0
          ints: 0
          ints: 0
          ints: 0
          ints: 0
          ints: 0
          ints: 0
          ints: 0
          ints: 0
          ints: 0
          ints: 0
          ints: 0
          ints: 0
          ints: 0
          ints: 0
          ints: 0
          ints: 0
          ints: 0
          ints: 0
          ints: 0
          ints: 0
          ints: 0
          ints: 0
          ints: 0
          ints: 0
          ints: 0
          ints: 0
          ints: 0
          ints: 0
          ints: 0
          ints: 0
          ints: 0
          ints: 0
          ints: 0
          ints: 0
          ints: 0
          type: INTS
        }
        attribute {
          name: "nodes_truenodeids"
          ints: 1
          ints: 2
          ints: 3
          ints: 4
          ints: 5
          ints: 6
          ints: 0
          ints: 0
          ints: 0
          ints: 10
          ints: 0
          ints: 0
          ints: 13
          ints: 14
          ints: 15
          ints: 16
          ints: 0
          ints: 0
          ints: 0
          ints: 20
          ints: 21
          ints: 0
          ints: 0
          ints: 24
          ints: 0
          ints: 0
          ints: 27
          ints: 28
          ints: 29
          ints: 0
          ints: 0
          ints: 32
          ints: 0
          ints: 0
          ints: 35
          ints: 36
          ints: 0
          ints: 0
          ints: 0
          ints: 40
          ints: 41
          ints: 42
          ints: 43
          ints: 0
          ints: 0
          ints: 46
          ints: 47
          ints: 0
          ints: 0
          ints: 50
          ints: 0
          ints: 0
          ints: 0
          ints: 0
          ints: 55
          ints: 56
          ints: 57
          ints: 0
          ints: 59
          ints: 60
          ints: 0
          ints: 62
          ints: 0
          ints: 0
          ints: 65
          ints: 66
          ints: 0
          ints: 0
          ints: 69
          ints: 0
          ints: 0
          ints: 72
          ints: 73
          ints: 74
          ints: 75
          ints: 0
          ints: 0
          ints: 78
          ints: 0
          ints: 0
          ints: 0
          ints: 82
          ints: 83
          ints: 84
          ints: 0
          ints: 0
          ints: 0
          ints: 0
          ints: 89
          ints: 90
          ints: 91
          ints: 92
          ints: 0
          ints: 0
          ints: 0
          ints: 0
          ints: 0
          type: INTS
        }
        attribute {
          name: "nodes_values"
          floats: 3.779630184173584
          floats: -1.6347616910934448
          floats: 1.2153209447860718
          floats: -3.3676598072052
          floats: -5.108154773712158
          floats: -1.9925451278686523
          floats: 0.0
          floats: 0.0
          floats: 0.0
          floats: -3.159832000732422
          floats: 0.0
          floats: 0.0
          floats: -3.7390947341918945
          floats: 6.407886505126953
          floats: -4.017796516418457
          floats: -5.27738094329834
          floats: 0.0
          floats: 0.0
          floats: 0.0
          floats: 7.223672866821289
          floats: -4.0592803955078125
          floats: 0.0
          floats: 0.0
          floats: -5.235997676849365
          floats: 0.0
          floats: 0.0
          floats: 6.646574020385742
          floats: -2.8781700134277344
          floats: 6.030533790588379
          floats: 0.0
          floats: 0.0
          floats: -2.6260712146759033
          floats: 0.0
          floats: 0.0
          floats: 7.8473005294799805
          floats: 7.294126033782959
          floats: 0.0
          floats: 0.0
          floats: 0.0
          floats: 2.141101837158203
          floats: -1.534124493598938
          floats: -8.190983772277832
          floats: 3.154237747192383
          floats: 0.0
          floats: 0.0
          floats: 0.652384340763092
          floats: 0.08647818863391876
          floats: 0.0
          floats: 0.0
          floats: 2.5985474586486816
          floats: 0.0
          floats: 0.0
          floats: 0.0
          floats: 0.0
          floats: 5.668392181396484
          floats: -8.834744453430176
          floats: 4.204715251922607
          floats: 0.0
          floats: 5.101557731628418
          floats: 4.373326301574707
          floats: 0.0
          floats: -10.477716445922852
          floats: 0.0
          floats: 0.0
          floats: 5.413354396820068
          floats: -9.238672256469727
          floats: 0.0
          floats: 0.0
          floats: -10.206411361694336
          floats: 0.0
          floats: 0.0
          floats: 4.940210819244385
          floats: -7.330533027648926
          floats: 4.502298831939697
          floats: 3.9604134559631348
          floats: 0.0
          floats: 0.0
          floats: -8.697850227355957
          floats: 0.0
          floats: 0.0
          floats: 0.0
          floats: 5.3723978996276855
          floats: 5.2438178062438965
          floats: 5.051088333129883
          floats: 0.0
          floats: 0.0
          floats: 0.0
          floats: 0.0
          floats: 6.308589935302734
          floats: -7.764686584472656
          floats: -8.355117797851562
          floats: 5.959316253662109
          floats: 0.0
          floats: 0.0
          floats: 0.0
          floats: 0.0
          floats: 0.0
          type: FLOATS
        }
        attribute {
          name: "post_transform"
          s: "NONE"
          type: STRING
        }
        attribute {
          name: "target_ids"
          ints: 0
          ints: 0
          ints: 0
          ints: 0
          ints: 0
          ints: 0
          ints: 0
          ints: 0
          ints: 0
          ints: 0
          ints: 0
          ints: 0
          ints: 0
          ints: 0
          ints: 0
          ints: 0
          ints: 0
          ints: 0
          ints: 0
          ints: 0
          ints: 0
          ints: 0
          ints: 0
          ints: 0
          ints: 0
          ints: 0
          ints: 0
          ints: 0
          ints: 0
          ints: 0
          ints: 0
          ints: 0
          ints: 0
          ints: 0
          ints: 0
          ints: 0
          ints: 0
          ints: 0
          ints: 0
          ints: 0
          ints: 0
          ints: 0
          ints: 0
          ints: 0
          ints: 0
          ints: 0
          ints: 0
          ints: 0
          ints: 0
          type: INTS
        }
        attribute {
          name: "target_nodeids"
          ints: 6
          ints: 7
          ints: 8
          ints: 10
          ints: 11
          ints: 16
          ints: 17
          ints: 18
          ints: 21
          ints: 22
          ints: 24
          ints: 25
          ints: 29
          ints: 30
          ints: 32
          ints: 33
          ints: 36
          ints: 37
          ints: 38
          ints: 43
          ints: 44
          ints: 47
          ints: 48
          ints: 50
          ints: 51
          ints: 52
          ints: 53
          ints: 57
          ints: 60
          ints: 62
          ints: 63
          ints: 66
          ints: 67
          ints: 69
          ints: 70
          ints: 75
          ints: 76
          ints: 78
          ints: 79
          ints: 80
          ints: 84
          ints: 85
          ints: 86
          ints: 87
          ints: 92
          ints: 93
          ints: 94
          ints: 95
          ints: 96
          type: INTS
        }
        attribute {
          name: "target_treeids"
          ints: 0
          ints: 0
          ints: 0
          ints: 0
          ints: 0
          ints: 0
          ints: 0
          ints: 0
          ints: 0
          ints: 0
          ints: 0
          ints: 0
          ints: 0
          ints: 0
          ints: 0
          ints: 0
          ints: 0
          ints: 0
          ints: 0
          ints: 0
          ints: 0
          ints: 0
          ints: 0
          ints: 0
          ints: 0
          ints: 0
          ints: 0
          ints: 0
          ints: 0
          ints: 0
          ints: 0
          ints: 0
          ints: 0
          ints: 0
          ints: 0
          ints: 0
          ints: 0
          ints: 0
          ints: 0
          ints: 0
          ints: 0
          ints: 0
          ints: 0
          ints: 0
          ints: 0
          ints: 0
          ints: 0
          ints: 0
          ints: 0
          type: INTS
        }
        attribute {
          name: "target_weights"
          floats: 6.0
          floats: 7.0
          floats: 8.0
          floats: 10.0
          floats: 11.0
          floats: 16.0
          floats: 17.0
          floats: 18.0
          floats: 21.0
          floats: 22.0
          floats: 24.0
          floats: 25.0
          floats: 29.0
          floats: 30.0
          floats: 32.0
          floats: 33.0
          floats: 36.0
          floats: 37.0
          floats: 38.0
          floats: 43.0
          floats: 44.0
          floats: 47.0
          floats: 48.0
          floats: 50.0
          floats: 51.0
          floats: 52.0
          floats: 53.0
          floats: 57.0
          floats: 60.0
          floats: 62.0
          floats: 63.0
          floats: 66.0
          floats: 67.0
          floats: 69.0
          floats: 70.0
          floats: 75.0
          floats: 76.0
          floats: 78.0
          floats: 79.0
          floats: 80.0
          floats: 84.0
          floats: 85.0
          floats: 86.0
          floats: 87.0
          floats: 92.0
          floats: 93.0
          floats: 94.0
          floats: 95.0
          floats: 96.0
          type: FLOATS
        }
        domain: "ai.onnx.ml"
      }
      node {
        input: "node_sample0_output01"
        output: "node_sample0_Y01"
        name: "node_sample0_LabelEncoder"
        op_type: "LabelEncoder"
        attribute {
          name: "keys_int64s"
          ints: 3
          ints: 8
          ints: 9
          ints: 11
          ints: 12
          ints: 15
          ints: 16
          ints: 18
          ints: 19
          ints: 20
          ints: 24
          ints: 25
          ints: 28
          ints: 29
          ints: 31
          ints: 33
          ints: 34
          ints: 37
          ints: 38
          ints: 40
          ints: 41
          ints: 44
          ints: 46
          ints: 47
          ints: 53
          ints: 54
          ints: 56
          ints: 57
          ints: 59
          ints: 61
          ints: 62
          ints: 66
          ints: 67
          ints: 69
          ints: 70
          ints: 73
          ints: 74
          ints: 75
          ints: 80
          ints: 81
          ints: 83
          ints: 84
          ints: 87
          ints: 88
          ints: 90
          ints: 91
          ints: 94
          ints: 96
          ints: 97
          ints: 98
          type: INTS
        }
        attribute {
          name: "values_floats"
          floats: 1.0
          floats: 2.0
          floats: 1.0
          floats: 2.0
          floats: 3.0
          floats: 3.0
          floats: 5.0
          floats: 2.0
          floats: 1.0
          floats: 1.0
          floats: 1.0
          floats: 1.0
          floats: 1.0
          floats: 1.0
          floats: 1.0
          floats: 2.0
          floats: 1.0
          floats: 1.0
          floats: 1.0
          floats: 1.0
          floats: 1.0
          floats: 1.0
          floats: 1.0
          floats: 1.0
          floats: 1.0
          floats: 1.0
          floats: 1.0
          floats: 1.0
          floats: 1.0
          floats: 8.0
          floats: 1.0
          floats: 5.0
          floats: 13.0
          floats: 8.0
          floats: 1.0
          floats: 1.0
          floats: 1.0
          floats: 1.0
          floats: 1.0
          floats: 2.0
          floats: 1.0
          floats: 1.0
          floats: 1.0
          floats: 1.0
          floats: 7.0
          floats: 1.0
          floats: 1.0
          floats: 2.0
          floats: 1.0
          floats: 1.0
          type: FLOATS
        }
        domain: "ai.onnx.ml"
      }
      node {
        input: "node_sample1_Y0"
        output: "path_length1_output0"
        name: "path_length1_Cast"
        op_type: "Cast"
        attribute {
          name: "to"
          i: 7
          type: INT
        }
        domain: ""
      }
      node {
        input: "node_sample1_Y0"
        output: "node_sample1_output01"
        name: "node_sample1_Cast"
        op_type: "Cast"
        attribute {
          name: "to"
          i: 7
          type: INT
        }
        domain: ""
      }
      node {
        input: "path_length0_output0"
        output: "path_length0_Y0"
        name: "path_length0_LabelEncoder"
        op_type: "LabelEncoder"
        attribute {
          name: "keys_int64s"
          ints: 3
          ints: 8
          ints: 9
          ints: 11
          ints: 12
          ints: 15
          ints: 16
          ints: 18
          ints: 19
          ints: 20
          ints: 24
          ints: 25
          ints: 28
          ints: 29
          ints: 31
          ints: 33
          ints: 34
          ints: 37
          ints: 38
          ints: 40
          ints: 41
          ints: 44
          ints: 46
          ints: 47
          ints: 53
          ints: 54
          ints: 56
          ints: 57
          ints: 59
          ints: 61
          ints: 62
          ints: 66
          ints: 67
          ints: 69
          ints: 70
          ints: 73
          ints: 74
          ints: 75
          ints: 80
          ints: 81
          ints: 83
          ints: 84
          ints: 87
          ints: 88
          ints: 90
          ints: 91
          ints: 94
          ints: 96
          ints: 97
          ints: 98
          type: INTS
        }
        attribute {
          name: "values_floats"
          floats: 4.0
          floats: 8.0
          floats: 8.0
          floats: 8.0
          floats: 8.0
          floats: 8.0
          floats: 8.0
          floats: 8.0
          floats: 8.0
          floats: 5.0
          floats: 6.0
          floats: 6.0
          floats: 7.0
          floats: 7.0
          floats: 7.0
          floats: 8.0
          floats: 8.0
          floats: 6.0
          floats: 6.0
          floats: 6.0
          floats: 6.0
          floats: 4.0
          floats: 5.0
          floats: 5.0
          floats: 8.0
          floats: 8.0
          floats: 8.0
          floats: 8.0
          floats: 7.0
          floats: 8.0
          floats: 8.0
          floats: 8.0
          floats: 8.0
          floats: 8.0
          floats: 8.0
          floats: 8.0
          floats: 8.0
          floats: 7.0
          floats: 8.0
          floats: 8.0
          floats: 8.0
          floats: 8.0
          floats: 8.0
          floats: 8.0
          floats: 8.0
          floats: 8.0
          floats: 7.0
          floats: 8.0
          floats: 8.0
          floats: 6.0
          type: FLOATS
        }
        domain: "ai.onnx.ml"
      }
      node {
        input: "node_sample2_Y0"
        output: "path_length2_output0"
        name: "path_length2_Cast"
        op_type: "Cast"
        attribute {
          name: "to"
          i: 7
          type: INT
        }
        domain: ""
      }
      node {
        input: "node_sample2_Y0"
        output: "node_sample2_output01"
        name: "node_sample2_Cast"
        op_type: "Cast"
        attribute {
          name: "to"
          i: 7
          type: INT
        }
        domain: ""
      }
      node {
        input: "node_sample0_Y01"
        input: "path_length0_Reshapecst"
        output: "node_sample0_reshaped0"
        name: "node_sample0_Reshape"
        op_type: "Reshape"
        attribute {
          name: "allowzero"
          i: 0
          type: INT
        }
        domain: ""
      }
      node {
        input: "path_length1_output0"
        output: "path_length1_Y0"
        name: "path_length1_LabelEncoder"
        op_type: "LabelEncoder"
        attribute {
          name: "keys_int64s"
          ints: 5
          ints: 7
          ints: 9
          ints: 10
          ints: 14
          ints: 15
          ints: 17
          ints: 18
          ints: 21
          ints: 22
          ints: 23
          ints: 27
          ints: 28
          ints: 31
          ints: 32
          ints: 34
          ints: 35
          ints: 36
          ints: 40
          ints: 41
          ints: 44
          ints: 46
          ints: 47
          ints: 48
          ints: 51
          ints: 53
          ints: 54
          ints: 58
          ints: 59
          ints: 60
          ints: 61
          ints: 67
          ints: 69
          ints: 70
          ints: 73
          ints: 74
          ints: 76
          ints: 77
          ints: 81
          ints: 82
          ints: 84
          ints: 85
          ints: 87
          ints: 88
          ints: 90
          ints: 92
          ints: 93
          ints: 98
          ints: 100
          ints: 101
          ints: 102
          ints: 103
          ints: 107
          ints: 108
          ints: 109
          ints: 110
          type: INTS
        }
        attribute {
          name: "values_floats"
          floats: 6.0
          floats: 7.0
          floats: 8.0
          floats: 8.0
          floats: 8.0
          floats: 8.0
          floats: 8.0
          floats: 8.0
          floats: 8.0
          floats: 8.0
          floats: 7.0
          floats: 7.0
          floats: 7.0
          floats: 8.0
          floats: 8.0
          floats: 8.0
          floats: 8.0
          floats: 5.0
          floats: 6.0
          floats: 6.0
          floats: 7.0
          floats: 8.0
          floats: 8.0
          floats: 6.0
          floats: 6.0
          floats: 7.0
          floats: 7.0
          floats: 8.0
          floats: 8.0
          floats: 7.0
          floats: 6.0
          floats: 7.0
          floats: 8.0
          floats: 8.0
          floats: 8.0
          floats: 8.0
          floats: 8.0
          floats: 8.0
          floats: 8.0
          floats: 8.0
          floats: 8.0
          floats: 8.0
          floats: 7.0
          floats: 7.0
          floats: 5.0
          floats: 6.0
          floats: 6.0
          floats: 7.0
          floats: 8.0
          floats: 8.0
          floats: 6.0
          floats: 5.0
          floats: 7.0
          floats: 7.0
          floats: 6.0
          floats: 5.0
          type: FLOATS
        }
        domain: "ai.onnx.ml"
      }
      node {
        input: "node_sample1_output01"
        output: "node_sample1_Y01"
        name: "node_sample1_LabelEncoder"
        op_type: "LabelEncoder"
        attribute {
          name: "keys_int64s"
          ints: 5
          ints: 7
          ints: 9
          ints: 10
          ints: 14
          ints: 15
          ints: 17
          ints: 18
          ints: 21
          ints: 22
          ints: 23
          ints: 27
          ints: 28
          ints: 31
          ints: 32
          ints: 34
          ints: 35
          ints: 36
          ints: 40
          ints: 41
          ints: 44
          ints: 46
          ints: 47
          ints: 48
          ints: 51
          ints: 53
          ints: 54
          ints: 58
          ints: 59
          ints: 60
          ints: 61
          ints: 67
          ints: 69
          ints: 70
          ints: 73
          ints: 74
          ints: 76
          ints: 77
          ints: 81
          ints: 82
          ints: 84
          ints: 85
          ints: 87
          ints: 88
          ints: 90
          ints: 92
          ints: 93
          ints: 98
          ints: 100
          ints: 101
          ints: 102
          ints: 103
          ints: 107
          ints: 108
          ints: 109
          ints: 110
          type: INTS
        }
        attribute {
          name: "values_floats"
          floats: 1.0
          floats: 1.0
          floats: 1.0
          floats: 11.0
          floats: 1.0
          floats: 3.0
          floats: 11.0
          floats: 1.0
          floats: 1.0
          floats: 1.0
          floats: 1.0
          floats: 1.0
          floats: 1.0
          floats: 2.0
          floats: 3.0
          floats: 5.0
          floats: 3.0
          floats: 1.0
          floats: 1.0
          floats: 1.0
          floats: 1.0
          floats: 6.0
          floats: 1.0
          floats: 1.0
          floats: 1.0
          floats: 1.0
          floats: 1.0
          floats: 1.0
          floats: 1.0
          floats: 1.0
          floats: 1.0
          floats: 1.0
          floats: 1.0
          floats: 2.0
          floats: 1.0
          floats: 1.0
          floats: 1.0
          floats: 2.0
          floats: 1.0
          floats: 2.0
          floats: 1.0
          floats: 4.0
          floats: 1.0
          floats: 1.0
          floats: 1.0
          floats: 1.0
          floats: 1.0
          floats: 1.0
          floats: 1.0
          floats: 3.0
          floats: 1.0
          floats: 1.0
          floats: 1.0
          floats: 1.0
          floats: 1.0
          floats: 1.0
          type: FLOATS
        }
        domain: "ai.onnx.ml"
      }
      node {
        input: "path_length0_Y0"
        input: "path_length0_Reshapecst"
        output: "path_length0_reshaped0"
        name: "path_length0_Reshape"
        op_type: "Reshape"
        attribute {
          name: "allowzero"
          i: 0
          type: INT
        }
        domain: ""
      }
      node {
        input: "path_length2_output0"
        output: "path_length2_Y0"
        name: "path_length2_LabelEncoder"
        op_type: "LabelEncoder"
        attribute {
          name: "keys_int64s"
          ints: 6
          ints: 7
          ints: 8
          ints: 10
          ints: 11
          ints: 16
          ints: 17
          ints: 18
          ints: 21
          ints: 22
          ints: 24
          ints: 25
          ints: 29
          ints: 30
          ints: 32
          ints: 33
          ints: 36
          ints: 37
          ints: 38
          ints: 43
          ints: 44
          ints: 47
          ints: 48
          ints: 50
          ints: 51
          ints: 52
          ints: 53
          ints: 57
          ints: 60
          ints: 62
          ints: 63
          ints: 66
          ints: 67
          ints: 69
          ints: 70
          ints: 75
          ints: 76
          ints: 78
          ints: 79
          ints: 80
          ints: 84
          ints: 85
          ints: 86
          ints: 87
          ints: 92
          ints: 93
          ints: 94
          ints: 95
          ints: 96
          type: INTS
        }
        attribute {
          name: "values_floats"
          floats: 7.0
          floats: 7.0
          floats: 6.0
          floats: 6.0
          floats: 6.0
          floats: 8.0
          floats: 8.0
          floats: 7.0
          floats: 8.0
          floats: 8.0
          floats: 8.0
          floats: 8.0
          floats: 8.0
          floats: 8.0
          floats: 8.0
          floats: 8.0
          floats: 8.0
          floats: 8.0
          floats: 7.0
          floats: 7.0
          floats: 7.0
          floats: 8.0
          floats: 8.0
          floats: 8.0
          floats: 8.0
          floats: 5.0
          floats: 4.0
          floats: 5.0
          floats: 7.0
          floats: 8.0
          floats: 8.0
          floats: 8.0
          floats: 8.0
          floats: 8.0
          floats: 8.0
          floats: 8.0
          floats: 8.0
          floats: 8.0
          floats: 8.0
          floats: 6.0
          floats: 8.0
          floats: 8.0
          floats: 7.0
          floats: 6.0
          floats: 7.0
          floats: 7.0
          floats: 6.0
          floats: 5.0
          floats: 4.0
          type: FLOATS
        }
        domain: "ai.onnx.ml"
      }
      node {
        input: "node_sample2_output01"
        output: "node_sample2_Y01"
        name: "node_sample2_LabelEncoder"
        op_type: "LabelEncoder"
        attribute {
          name: "keys_int64s"
          ints: 6
          ints: 7
          ints: 8
          ints: 10
          ints: 11
          ints: 16
          ints: 17
          ints: 18
          ints: 21
          ints: 22
          ints: 24
          ints: 25
          ints: 29
          ints: 30
          ints: 32
          ints: 33
          ints: 36
          ints: 37
          ints: 38
          ints: 43
          ints: 44
          ints: 47
          ints: 48
          ints: 50
          ints: 51
          ints: 52
          ints: 53
          ints: 57
          ints: 60
          ints: 62
          ints: 63
          ints: 66
          ints: 67
          ints: 69
          ints: 70
          ints: 75
          ints: 76
          ints: 78
          ints: 79
          ints: 80
          ints: 84
          ints: 85
          ints: 86
          ints: 87
          ints: 92
          ints: 93
          ints: 94
          ints: 95
          ints: 96
          type: INTS
        }
        attribute {
          name: "values_floats"
          floats: 1.0
          floats: 1.0
          floats: 1.0
          floats: 1.0
          floats: 1.0
          floats: 1.0
          floats: 4.0
          floats: 1.0
          floats: 3.0
          floats: 1.0
          floats: 1.0
          floats: 3.0
          floats: 4.0
          floats: 2.0
          floats: 2.0
          floats: 4.0
          floats: 5.0
          floats: 1.0
          floats: 1.0
          floats: 1.0
          floats: 1.0
          floats: 21.0
          floats: 4.0
          floats: 2.0
          floats: 2.0
          floats: 1.0
          floats: 1.0
          floats: 1.0
          floats: 1.0
          floats: 1.0
          floats: 3.0
          floats: 2.0
          floats: 1.0
          floats: 1.0
          floats: 1.0
          floats: 2.0
          floats: 2.0
          floats: 1.0
          floats: 2.0
          floats: 1.0
          floats: 1.0
          floats: 2.0
          floats: 1.0
          floats: 1.0
          floats: 1.0
          floats: 1.0
          floats: 1.0
          floats: 1.0
          floats: 1.0
          type: FLOATS
        }
        domain: "ai.onnx.ml"
      }
      node {
        input: "node_sample0_reshaped0"
        input: "dec_Powcst"
        output: "eq2_0_C0"
        name: "eq2_0_Equal"
        op_type: "Equal"
        domain: ""
      }
      node {
        input: "path_length1_Y0"
        input: "path_length0_Reshapecst"
        output: "path_length1_reshaped0"
        name: "path_length1_Reshape"
        op_type: "Reshape"
        attribute {
          name: "allowzero"
          i: 0
          type: INT
        }
        domain: ""
      }
      node {
        input: "node_sample1_Y01"
        input: "path_length0_Reshapecst"
        output: "node_sample1_reshaped0"
        name: "node_sample1_Reshape"
        op_type: "Reshape"
        attribute {
          name: "allowzero"
          i: 0
          type: INT
        }
        domain: ""
      }
      node {
        input: "node_sample0_reshaped0"
        input: "dec_Powcst"
        output: "plus2_0_C0"
        name: "plus2_0_Greater"
        op_type: "Greater"
        domain: ""
      }
      node {
        input: "path_length2_Y0"
        input: "path_length0_Reshapecst"
        output: "path_length2_reshaped0"
        name: "path_length2_Reshape"
        op_type: "Reshape"
        attribute {
          name: "allowzero"
          i: 0
          type: INT
        }
        domain: ""
      }
      node {
        input: "node_sample2_Y01"
        input: "path_length0_Reshapecst"
        output: "node_sample2_reshaped0"
        name: "node_sample2_Reshape"
        op_type: "Reshape"
        attribute {
          name: "allowzero"
          i: 0
          type: INT
        }
        domain: ""
      }
      node {
        input: "plus2_0_C0"
        output: "plus2_0_output0"
        name: "plus2_0_Cast"
        op_type: "Cast"
        attribute {
          name: "to"
          i: 1
          type: INT
        }
        domain: ""
      }
      node {
        input: "node_sample1_reshaped0"
        input: "dec_Powcst"
        output: "eq2_1_C0"
        name: "eq2_1_Equal"
        op_type: "Equal"
        domain: ""
      }
      node {
        input: "node_sample1_reshaped0"
        input: "dec_Powcst"
        output: "plus2_1_C0"
        name: "plus2_1_Greater"
        op_type: "Greater"
        domain: ""
      }
      node {
        input: "eq2_0_C0"
        output: "eq2_0_output0"
        name: "eq2_0_Cast"
        op_type: "Cast"
        attribute {
          name: "to"
          i: 1
          type: INT
        }
        domain: ""
      }
      node {
        input: "node_sample2_reshaped0"
        input: "dec_Powcst"
        output: "eq2_2_C0"
        name: "eq2_2_Equal"
        op_type: "Equal"
        domain: ""
      }
      node {
        input: "node_sample2_reshaped0"
        input: "dec_Powcst"
        output: "plus2_2_C0"
        name: "plus2_2_Greater"
        op_type: "Greater"
        domain: ""
      }
      node {
        input: "eq2_1_C0"
        output: "eq2_1_output0"
        name: "eq2_1_Cast"
        op_type: "Cast"
        attribute {
          name: "to"
          i: 1
          type: INT
        }
        domain: ""
      }
      node {
        input: "plus2_1_C0"
        output: "plus2_1_output0"
        name: "plus2_1_Cast"
        op_type: "Cast"
        attribute {
          name: "to"
          i: 1
          type: INT
        }
        domain: ""
      }
      node {
        input: "plus2_0_output0"
        input: "node_sample0_reshaped0"
        output: "eqp2ps0_C0"
        name: "eqp2ps0_Mul"
        op_type: "Mul"
        domain: ""
      }
      node {
        input: "eq2_2_C0"
        output: "eq2_2_output0"
        name: "eq2_2_Cast"
        op_type: "Cast"
        attribute {
          name: "to"
          i: 1
          type: INT
        }
        domain: ""
      }
      node {
        input: "plus2_2_C0"
        output: "plus2_2_output0"
        name: "plus2_2_Cast"
        op_type: "Cast"
        attribute {
          name: "to"
          i: 1
          type: INT
        }
        domain: ""
      }
      node {
        input: "eqp2ps0_C0"
        input: "eqp2p_m1_0_Addcst"
        output: "eqp2p_m1_0_C0"
        name: "eqp2p_m1_0_Add"
        op_type: "Add"
        domain: ""
      }
      node {
        input: "eqp2ps0_C0"
        input: "eqp2p_m1_0_Maxcst"
        output: "eqp_ns0_max0"
        name: "eqp_ns0_Max"
        op_type: "Max"
        domain: ""
      }
      node {
        input: "plus2_1_output0"
        input: "node_sample1_reshaped0"
        output: "eqp2ps1_C0"
        name: "eqp2ps1_Mul"
        op_type: "Mul"
        domain: ""
      }
      node {
        input: "plus2_2_output0"
        input: "node_sample2_reshaped0"
        output: "eqp2ps2_C0"
        name: "eqp2ps2_Mul"
        op_type: "Mul"
        domain: ""
      }
      node {
        input: "eqp2ps1_C0"
        input: "eqp2p_m1_0_Maxcst"
        output: "eqp_ns1_max0"
        name: "eqp_ns1_Max"
        op_type: "Max"
        domain: ""
      }
      node {
        input: "eqp2ps1_C0"
        input: "eqp2p_m1_0_Addcst"
        output: "eqp2p_m1_1_C0"
        name: "eqp2p_m1_1_Add"
        op_type: "Add"
        domain: ""
      }
      node {
        input: "eqp2p_m1_0_C0"
        input: "eqp2p_m1_0_Maxcst1"
        output: "eqp2p_m1_0_max01"
        name: "eqp2p_m1_0_Max1"
        op_type: "Max"
        domain: ""
      }
      node {
        input: "eqp2p_m1_0_C0"
        input: "eqp2p_m1_0_Maxcst"
        output: "eqp2p_m1_0_max0"
        name: "eqp2p_m1_0_Max"
        op_type: "Max"
        domain: ""
      }
      node {
        input: "eqp2ps2_C0"
        input: "eqp2p_m1_0_Addcst"
        output: "eqp2p_m1_2_C0"
        name: "eqp2p_m1_2_Add"
        op_type: "Add"
        domain: ""
      }
      node {
        input: "eqp2ps2_C0"
        input: "eqp2p_m1_0_Maxcst"
        output: "eqp_ns2_max0"
        name: "eqp_ns2_Max"
        op_type: "Max"
        domain: ""
      }
      node {
        input: "eqp2p_m1_0_max0"
        output: "eqp_log0_output0"
        name: "eqp_log0_Log"
        op_type: "Log"
        domain: ""
      }
      node {
        input: "eqp2p_m1_0_max01"
        input: "eqp_ns0_max0"
        output: "eqp_ns0_C01"
        name: "eqp_ns0_Div"
        op_type: "Div"
        domain: ""
      }
      node {
        input: "eqp2p_m1_1_C0"
        input: "eqp2p_m1_0_Maxcst"
        output: "eqp2p_m1_1_max0"
        name: "eqp2p_m1_1_Max"
        op_type: "Max"
        domain: ""
      }
      node {
        input: "eqp2p_m1_1_C0"
        input: "eqp2p_m1_0_Maxcst1"
        output: "eqp2p_m1_1_max01"
        name: "eqp2p_m1_1_Max1"
        op_type: "Max"
        domain: ""
      }
      node {
        input: "eqp2p_m1_2_C0"
        input: "eqp2p_m1_0_Maxcst1"
        output: "eqp2p_m1_2_max01"
        name: "eqp2p_m1_2_Max1"
        op_type: "Max"
        domain: ""
      }
      node {
        input: "eqp2p_m1_2_C0"
        input: "eqp2p_m1_0_Maxcst"
        output: "eqp2p_m1_2_max0"
        name: "eqp2p_m1_2_Max"
        op_type: "Max"
        domain: ""
      }
      node {
        input: "eqp2p_m1_2_max01"
        input: "eqp_ns2_max0"
        output: "eqp_ns2_C01"
        name: "eqp_ns2_Div"
        op_type: "Div"
        domain: ""
      }
      node {
        input: "eqp_ns0_C01"
        input: "eqp_ns0_Mulcst"
        output: "eqp_ns0_C0"
        name: "eqp_ns0_Mul"
        op_type: "Mul"
        domain: ""
      }
      node {
        input: "eqp2p_m1_1_max0"
        output: "eqp_log1_output0"
        name: "eqp_log1_Log"
        op_type: "Log"
        domain: ""
      }
      node {
        input: "eqp_log0_output0"
        input: "eqp_log0_Addcst"
        output: "eqp_log0_C01"
        name: "eqp_log0_Add"
        op_type: "Add"
        domain: ""
      }
      node {
        input: "eqp2p_m1_1_max01"
        input: "eqp_ns1_max0"
        output: "eqp_ns1_C01"
        name: "eqp_ns1_Div"
        op_type: "Div"
        domain: ""
      }
      node {
        input: "eqp2p_m1_2_max0"
        output: "eqp_log2_output0"
        name: "eqp_log2_Log"
        op_type: "Log"
        domain: ""
      }
      node {
        input: "eqp_log0_C01"
        input: "dec_Powcst"
        output: "eqp_log0_C0"
        name: "eqp_log0_Mul"
        op_type: "Mul"
        domain: ""
      }
      node {
        input: "eqp_ns2_C01"
        input: "eqp_ns0_Mulcst"
        output: "eqp_ns2_C0"
        name: "eqp_ns2_Mul"
        op_type: "Mul"
        domain: ""
      }
      node {
        input: "eqp_log1_output0"
        input: "eqp_log0_Addcst"
        output: "eqp_log1_C01"
        name: "eqp_log1_Add"
        op_type: "Add"
        domain: ""
      }
      node {
        input: "eqp_log2_output0"
        input: "eqp_log0_Addcst"
        output: "eqp_log2_C01"
        name: "eqp_log2_Add"
        op_type: "Add"
        domain: ""
      }
      node {
        input: "eqp_ns1_C01"
        input: "eqp_ns0_Mulcst"
        output: "eqp_ns1_C0"
        name: "eqp_ns1_Mul"
        op_type: "Mul"
        domain: ""
      }
      node {
        input: "eqp_log0_C0"
        input: "eqp_ns0_C0"
        output: "avlog0_C01"
        name: "avlog0_Add"
        op_type: "Add"
        domain: ""
      }
      node {
        input: "eqp_log1_C01"
        input: "dec_Powcst"
        output: "eqp_log1_C0"
        name: "eqp_log1_Mul"
        op_type: "Mul"
        domain: ""
      }
      node {
        input: "eqp_log2_C01"
        input: "dec_Powcst"
        output: "eqp_log2_C0"
        name: "eqp_log2_Mul"
        op_type: "Mul"
        domain: ""
      }
      node {
        input: "eqp_log2_C0"
        input: "eqp_ns2_C0"
        output: "avlog2_C01"
        name: "avlog2_Add"
        op_type: "Add"
        domain: ""
      }
      node {
        input: "avlog0_C01"
        input: "plus2_0_output0"
        output: "avlog0_C0"
        name: "avlog0_Mul"
        op_type: "Mul"
        domain: ""
      }
      node {
        input: "eqp_log1_C0"
        input: "eqp_ns1_C0"
        output: "avlog1_C01"
        name: "avlog1_Add"
        op_type: "Add"
        domain: ""
      }
      node {
        input: "avlog2_C01"
        input: "plus2_2_output0"
        output: "avlog2_C0"
        name: "avlog2_Mul"
        op_type: "Mul"
        domain: ""
      }
      node {
        input: "eq2_0_output0"
        input: "avlog0_C0"
        output: "avpl0_C0"
        name: "avpl0_Add"
        op_type: "Add"
        domain: ""
      }
      node {
        input: "avlog1_C01"
        input: "plus2_1_output0"
        output: "avlog1_C0"
        name: "avlog1_Mul"
        op_type: "Mul"
        domain: ""
      }
      node {
        input: "eq2_2_output0"
        input: "avlog2_C0"
        output: "avpl2_C0"
        name: "avpl2_Add"
        op_type: "Add"
        domain: ""
      }
      node {
        input: "path_length0_reshaped0"
        input: "avpl0_C0"
        output: "depth0_C01"
        name: "depth0_Add"
        op_type: "Add"
        domain: ""
      }
      node {
        input: "eq2_1_output0"
        input: "avlog1_C0"
        output: "avpl1_C0"
        name: "avpl1_Add"
        op_type: "Add"
        domain: ""
      }
      node {
        input: "path_length2_reshaped0"
        input: "avpl2_C0"
        output: "depth2_C01"
        name: "depth2_Add"
        op_type: "Add"
        domain: ""
      }
      node {
        input: "depth0_C01"
        input: "eqp2p_m1_0_Addcst"
        output: "depth0_C0"
        name: "depth0_Add1"
        op_type: "Add"
        domain: ""
      }
      node {
        input: "path_length1_reshaped0"
        input: "avpl1_C0"
        output: "depth1_C01"
        name: "depth1_Add"
        op_type: "Add"
        domain: ""
      }
      node {
        input: "depth2_C01"
        input: "eqp2p_m1_0_Addcst"
        output: "depth2_C0"
        name: "depth2_Add1"
        op_type: "Add"
        domain: ""
      }
      node {
        input: "depth1_C01"
        input: "eqp2p_m1_0_Addcst"
        output: "depth1_C0"
        name: "depth1_Add1"
        op_type: "Add"
        domain: ""
      }
      node {
        input: "depth0_C0"
        input: "depth1_C0"
        input: "depth2_C0"
        output: "dec_sum0"
        name: "dec_Sum"
        op_type: "Sum"
        domain: ""
      }
      node {
        input: "dec_sum0"
        input: "dec_Divcst"
        output: "dec_C0"
        name: "dec_Div"
        op_type: "Div"
        domain: ""
      }
      node {
        input: "dec_C0"
        output: "dec_Y01"
        name: "dec_Neg"
        op_type: "Neg"
        domain: ""
      }
      node {
        input: "dec_Powcst"
        input: "dec_Y01"
        output: "dec_Z0"
        name: "dec_Pow"
        op_type: "Pow"
        domain: ""
      }
      node {
        input: "dec_Z0"
        output: "dec_Y0"
        name: "dec_Neg1"
        op_type: "Neg"
        domain: ""
      }
      node {
        input: "dec_Y0"
        input: "dec_Addcst"
        output: "scores"
        name: "dec_Add"
        op_type: "Add"
        domain: ""
      }
      node {
        input: "scores"
        input: "eqp2p_m1_0_Maxcst1"
        output: "predict_C01"
        name: "predict_Less"
        op_type: "Less"
        domain: ""
      }
      node {
        input: "predict_C01"
        output: "predict_output0"
        name: "predict_Cast"
        op_type: "Cast"
        attribute {
          name: "to"
          i: 7
          type: INT
        }
        domain: ""
      }
      node {
        input: "predict_output0"
        input: "predict_Mulcst"
        output: "predict_C0"
        name: "predict_Mul"
        op_type: "Mul"
        domain: ""
      }
      node {
        input: "predict_C0"
        input: "predict_Addcst"
        output: "label"
        name: "predict_Add"
        op_type: "Add"
        domain: ""
      }
      name: "ONNX(IsolationForest)"
      initializer {
        dims: 1
        data_type: 1
        float_data: 2.0
        name: "dec_Powcst"
      }
      initializer {
        dims: 2
        data_type: 7
        int64_data: 0
        int64_data: 1
        name: "node_sample0_Gathercst"
      }
      initializer {
        dims: 2
        data_type: 7
        int64_data: -1
        int64_data: 1
        name: "path_length0_Reshapecst"
      }
      initializer {
        dims: 1
        data_type: 1
        float_data: -1.0
        name: "eqp2p_m1_0_Addcst"
      }
      initializer {
        dims: 1
        data_type: 1
        float_data: 1.0
        name: "eqp2p_m1_0_Maxcst"
      }
      initializer {
        dims: 1
        data_type: 1
        float_data: 0.5772156715393066
        name: "eqp_log0_Addcst"
      }
      initializer {
        dims: 1
        data_type: 1
        float_data: 0.0
        name: "eqp2p_m1_0_Maxcst1"
      }
      initializer {
        dims: 1
        data_type: 1
        float_data: -2.0
        name: "eqp_ns0_Mulcst"
      }
      initializer {
        dims: 1
        dims: 1
        data_type: 1
        float_data: 25.094013214111328
        name: "dec_Divcst"
      }
      initializer {
        dims: 1
        data_type: 1
        float_data: 0.5
        name: "dec_Addcst"
      }
      initializer {
        dims: 1
        data_type: 7
        int64_data: -2
        name: "predict_Mulcst"
      }
      initializer {
        dims: 1
        data_type: 7
        int64_data: 1
        name: "predict_Addcst"
      }
      input {
        name: "X"
        type {
          tensor_type {
            elem_type: 1
            shape {
              dim {
              }
              dim {
                dim_value: 2
              }
            }
          }
        }
      }
      output {
        name: "label"
        type {
          tensor_type {
            elem_type: 7
            shape {
              dim {
              }
              dim {
                dim_value: 1
              }
            }
          }
        }
      }
      output {
        name: "scores"
        type {
          tensor_type {
            elem_type: 1
            shape {
              dim {
              }
              dim {
                dim_value: 1
              }
            }
          }
        }
      }
    }
    opset_import {
      domain: "ai.onnx.ml"
      version: 2
    }
    opset_import {
      domain: ""
      version: 14
    }





.. GENERATED FROM PYTHON SOURCE LINES 66-68

The last line shows the opsets.
Let's extract it.

.. GENERATED FROM PYTHON SOURCE LINES 68-73

.. code-block:: default


    domains = onx.opset_import
    for dom in domains:
        print("domain: %r, version: %r" % (dom.domain, dom.version))





.. rst-class:: sphx-glr-script-out

 Out:

 .. code-block:: none

    domain: 'ai.onnx.ml', version: 2
    domain: '', version: 14




.. GENERATED FROM PYTHON SOURCE LINES 74-76

There are two opsets, one for standard operators,
the other for machine learning operators.

.. GENERATED FROM PYTHON SOURCE LINES 78-83

ONNX and opset
++++++++++++++

The converter can convert a model to an older opset
than the default one, from 1 to the last available one.

.. GENERATED FROM PYTHON SOURCE LINES 83-101

.. code-block:: default



    def get_domain_opset(onx):
        domains = onx.opset_import
        res = [{'domain': dom.domain, 'version': dom.version}
               for dom in domains]
        return {d['domain']: d['version'] for d in res}


    for opset in range(1, onnx_opset_version() + 1):
        try:
            onx = to_onnx(model, X[:1].astype(numpy.float32), target_opset=opset)
        except RuntimeError as e:
            print('target: %r error: %r' % (opset, e))
            continue
        nodes = len(onx.graph.node)
        print('target: %r --> %s %d' % (opset, get_domain_opset(onx), nodes))





.. rst-class:: sphx-glr-script-out

 Out:

 .. code-block:: none

    target: 1 error: RuntimeError("Operator 'OnnxReshape_5': requested version 1 < 5 schema version.")
    target: 2 error: RuntimeError("Operator 'OnnxReshape_5': requested version 2 < 5 schema version.")
    target: 3 error: RuntimeError("Operator 'OnnxReshape_5': requested version 3 < 5 schema version.")
    target: 4 error: RuntimeError("Operator 'OnnxReshape_5': requested version 4 < 5 schema version.")
    target: 5 --> {'ai.onnx.ml': 2, '': 5} 91
    target: 6 --> {'ai.onnx.ml': 2, '': 6} 91
    target: 7 --> {'ai.onnx.ml': 2, '': 7} 91
    target: 8 --> {'ai.onnx.ml': 2, '': 8} 91
    target: 9 --> {'ai.onnx.ml': 2, '': 9} 91
    target: 10 --> {'ai.onnx.ml': 2, '': 10} 91
    target: 11 --> {'ai.onnx.ml': 2, '': 11} 91
    target: 12 --> {'': 12, 'ai.onnx.ml': 2} 91
    target: 13 --> {'ai.onnx.ml': 2, '': 13} 91
    target: 14 --> {'ai.onnx.ml': 2, '': 14} 91




.. GENERATED FROM PYTHON SOURCE LINES 102-113

It shows that the model cannot be converted for opset
below 5. Operator `Reshape <https://github.com/onnx/
onnx/blob/master/docs/Operators.md#Reshape>`_ changed in
opset 5: a parameter became an input. The converter
does not support *opset < 5* because runtimes usually do not.

Other opsets
++++++++++++

The previous example changed the opset of the main domain
``''`` but the other opset domain can be changed as well.

.. GENERATED FROM PYTHON SOURCE LINES 113-125

.. code-block:: default


    for opset in range(9, onnx_opset_version() + 1):
        for opset_ml in range(1, 3):
            tops = {'': opset, 'ai.onnx.ml': opset_ml}
            try:
                onx = to_onnx(
                    model, X[:1].astype(numpy.float32), target_opset=tops)
            except RuntimeError as e:
                print('target: %r error: %r' % (opset, e))
                continue
            nodes = len(onx.graph.node)
            print('target: %r --> %s %d' % (opset, get_domain_opset(onx), nodes))




.. rst-class:: sphx-glr-script-out

 Out:

 .. code-block:: none

    target: 9 error: RuntimeError("This converter requires at least opset 2 for domain 'ai.onnx.ml'.")
    target: 9 --> {'ai.onnx.ml': 2, '': 9} 91
    target: 10 error: RuntimeError("This converter requires at least opset 2 for domain 'ai.onnx.ml'.")
    target: 10 --> {'ai.onnx.ml': 2, '': 10} 91
    target: 11 error: RuntimeError("This converter requires at least opset 2 for domain 'ai.onnx.ml'.")
    target: 11 --> {'ai.onnx.ml': 2, '': 11} 91
    target: 12 error: RuntimeError("This converter requires at least opset 2 for domain 'ai.onnx.ml'.")
    target: 12 --> {'': 12, 'ai.onnx.ml': 2} 91
    target: 13 error: RuntimeError("This converter requires at least opset 2 for domain 'ai.onnx.ml'.")
    target: 13 --> {'ai.onnx.ml': 2, '': 13} 91
    target: 14 error: RuntimeError("This converter requires at least opset 2 for domain 'ai.onnx.ml'.")
    target: 14 --> {'ai.onnx.ml': 2, '': 14} 91





.. rst-class:: sphx-glr-timing

   **Total running time of the script:** ( 0 minutes  29.432 seconds)


.. _sphx_glr_download_auto_tutorial_plot_cbegin_opset.py:


.. only :: html

 .. container:: sphx-glr-footer
    :class: sphx-glr-footer-example


  .. container:: binder-badge

    .. image:: images/binder_badge_logo.svg
      :target: https://mybinder.org/v2/gh/onnx/sklearn-onnx/master?filepath=notebooks/auto_tutorial/plot_cbegin_opset.ipynb
      :alt: Launch binder
      :width: 150 px


  .. container:: sphx-glr-download sphx-glr-download-python

     :download:`Download Python source code: plot_cbegin_opset.py <plot_cbegin_opset.py>`



  .. container:: sphx-glr-download sphx-glr-download-jupyter

     :download:`Download Jupyter notebook: plot_cbegin_opset.ipynb <plot_cbegin_opset.ipynb>`


.. only:: html

 .. rst-class:: sphx-glr-signature

    `Gallery generated by Sphinx-Gallery <https://sphinx-gallery.github.io>`_
